output/run_10/best_model.pth (torch, 809897 bytes, 9 tensors)

lstm.weight_ih_l0 f4 [512, 6]
000000 3e 79 e1 3d bf c4 e5 3d ee d0 ce 3c f7 96 c2 be
       0.11009453 0.11219167 0.02524611 -0.38005802
000010 e1 26 82 be c2 5c ba bd f9 dc 2d be d2 29 2c 3e
       -0.25420287 -0.090997234 -0.16978826 0.16812828
000020 d7 fb a1 3d 53 f9 8a 3f d7 6c 4a be 7c 34 da 3c
       0.07909363 1.0857338 -0.19768082 0.026636355
000030 2e c6 45 be a6 d2 7d 3c d2 23 ee 3d c5 82 09 3f
       -0.19313881 0.015492117 0.11627926 0.53715163
000040 71 e7 1c bd 43 b4 0d be f9 86 89 bc 39 f7 2f bc
       -0.038306657 -0.13838296 -0.016787993 -0.010740095
000050 c7 77 84 bd 98 51 87 bf 60 da 06 3d d5 0e 14 3d
       -0.06468158 -1.0571775 0.032923102 0.036146957
000060 bc ab 37 bd 25 b2 f8 3b ea 61 e3 bc b1 7d 32 bf
       -0.044841513 0.007589596 -0.02775665 -0.6972304
000070 71 37 22 be c4 cf b2 bd 34 0c 60 3e 25 94 80 be
       -0.15841462 -0.087310344 0.21879655 -0.25113025
000080 ab a9 73 3d 1b a8 9b be fa 93 8e be e4 3d 8c 3e
       0.05948798 -0.30401692 -0.27847272 0.2739097
000090 a3 9e 0d be 7b 10 67 3e ab 55 37 bd cb 45 19 bf
       -0.13830046 0.2256488 -0.044759434 -0.5987212
0000a0 b8 3c 28 3d 11 1d 12 be 50 c8 b6 3d ec de 48 3e
       0.04107353 -0.142689 0.08924925 0.19616288
0000b0 37 a3 3e 3d 25 50 59 bc 46 78 5a be 3c 1a 43 3d
       0.046542373 -0.013263737 -0.21334943 0.04763244
0000c0 3b 00 02 3d cb c7 d8 bd 81 e1 c3 bd 9e 5f 6d be
       0.0317385 -0.105849825 -0.09564496 -0.23181006
0000d0 05 5e 7b be 2c 9a 05 3d 40 7a fd bc 47 5c 33 3e
       -0.24547584 0.032617733 -0.030942082 0.1751567
0000e0 1f 8a 98 bc bb 05 5e 3d 02 d5 84 3e f3 e1 97 be
       -0.018620549 0.054204684 0.25943762 -0.29664573
0000f0 f1 eb 12 3d c5 e4 66 3d 90 72 ad 3d 8e 02 02 3f
       0.035869543 0.056370515 0.08469117 0.5078515
000100 8a 87 e7 3d c0 bd 18 be 61 7e 85 3d 9b 7c 98 bd
       0.11305149 -0.14916134 0.065182455 -0.074456416
000110 71 a6 52 bd 51 39 12 bf fb 3f 73 3e 71 04 e7 bc
       -0.051428262 -0.5711871 0.23754875 -0.02820036
000120 5a ae ca 3d 35 c1 73 be 67 87 3f bd 4a fb 08 bf
       0.09896536 -0.23804171 -0.04675999 -0.53508437
000130 5c 43 88 be b0 cb 12 3e 2d 4e 84 3c 77 45 2a 3d
       -0.2661389 0.14335513 0.016150558 0.041570153
000140 93 0a 63 3d 0b 75 52 be 11 1a b2 3d b0 64 8a bd
       0.055430006 -0.20552461 0.08696378 -0.06757486
000150 22 0a 12 3e ee 81 58 bb d8 49 19 3d c7 f8 82 bf
       0.14261678 -0.0033036429 0.03742394 -1.0232171
000160 35 75 88 bd 34 44 9c 3d 45 80 35 3d 41 fb 75 bd
       -0.066629805 0.07630196 0.04431178 -0.060054068
000170 1f 50 05 3d 5a 7c b7 3e 15 83 8f be 07 84 96 3d
       0.032547113 0.3583706 -0.28029695 0.07349401
000180 67 b3 b5 3d 31 48 73 bd 60 6d 35 bd a3 45 6c be
       0.08872109 -0.05939502 -0.04429376 -0.2307344
000190 b0 ea a8 3a 5a 95 99 bc 92 16 09 3d d9 da 1a be
       0.0012887325 -0.018747974 0.03346879 -0.15122546
0001a0 04 96 2a bc 2c 0c c6 3e 2c dc 2f be 41 ab 4b be
       -0.010411743 0.3868116 -0.17173833 -0.19889547
0001b0 1f 99 81 3d be 58 f2 ba df 39 98 3d 2b 24 36 bf
       0.06328034 -0.0018489582 0.07432913 -0.7114894
0001c0 ad 6e 5a be 1e 12 66 bd 99 b8 83 bc dc a5 9b 3c
       -0.21331282 -0.05616962 -0.016079234 0.018999986
0001d0 41 6d 61 3b 33 63 32 3e 4b 65 1c bc 7e 50 76 be
       0.0034397396 0.17420654 -0.0095456345 -0.24054143
0001e0 e0 99 17 bd 18 99 3a 3d 36 5b 96 bb 87 2e 2d 3d
       -0.03701198 0.045556158 -0.00458851 0.0422807
0001f0 c9 4f 93 ba 94 de 51 be 2a 30 87 3c da 3f f7 bd
       -0.0011238988 -0.20495063 0.016502459 -0.120727256
000200 45 f7 84 3d 71 6c 7f bf 99 7d cf bd d5 84 d8 3d
       0.064924754 -0.99774843 -0.10131378 0.10572211
000210 67 c5 ac bd 87 30 06 3d ec bc 38 3d 64 73 79 be
       -0.08436089 0.032761123 0.045102045 -0.24360424
000220 e2 81 ce bd f6 45 8a 3d 04 05 1f be eb b7 fa bd
       -0.10083367 0.06751625 -0.15529257 -0.12242111
000230 92 e5 72 3d da 9e ec 3e f7 74 ec bd b3 73 2d bd
       0.059300967 0.46214944 -0.11545747 -0.042346667
000240 28 0b b6 3d 6e a4 0e 3e 6f 92 25 3d db 37 37 3f
       0.08888847 0.13929912 0.040422853 0.71569604
000250 0e d6 04 3e 8c d9 64 be 27 76 b2 be 69 af 9b bd
       0.1297228 -0.22348613 -0.34855768 -0.07601816
000260 da 7b b2 bc b9 db e1 be 24 3b 35 3d 16 00 c9 3c
       -0.021787573 -0.44112948 0.044245854 0.024536174
000270 55 b7 32 3e ad fe d7 bc 0a b8 65 3d 33 0c cc be
       0.17452748 -0.026366556 0.056083716 -0.39853057
000280 6a a1 42 be 76 16 4e 3d 18 05 38 3c 5b 26 28 be
       -0.19006887 0.05031439 0.011231683 -0.16420881
000290 7d 0f cd 3a 4d 10 5d be 99 3f 97 3d c5 5f 81 3d
       0.0015644875 -0.2158825 0.07385177 0.06317095
0002a0 c7 fb 47 3c 59 2b 5f 3d 17 41 52 bd fb e4 20 3f
       0.0122060245 0.0544847 -0.051331606 0.62849396
0002b0 26 5a 90 be 70 c8 78 3d 49 7d 1b bd 1c cb 0c 3e
       -0.28193778 0.060738027 -0.037961278 0.13749355
0002c0 5a b1 ac bd f0 5c 02 bc d0 9c 02 bd c2 48 03 be
       -0.084322646 -0.007956728 -0.03188783 -0.12820724
0002d0 8c 9d c0 3d 89 51 a3 3d 35 f7 33 bc 17 ec 91 bf
       0.0940505 0.07974536 -0.010984232 -1.1400174
0002e0 46 02 17 3e b6 c9 3a bc f1 f5 a0 bc c3 4d ea bc
       0.14746961 -0.011400631 -0.019648524 -0.028601533
0002f0 a7 aa 25 bc 9f 10 8a 3f 94 da 04 be e1 46 a5 be
       -0.0101114875 1.0786322 -0.12974006 -0.3228064
000300 cc 4d a8 3d 9b f9 2d 3e 38 18 31 3c b9 52 8c 3e
       0.082179636 0.16989748 0.010808997 0.27406862
000310 4d a8 85 bd 85 d5 41 bd 10 2a 24 3c 13 0f 28 3c
       -0.065262415 -0.04732277 0.010019794 0.0102575
000320 68 06 ea bd 9e 3b 66 bf 3d c3 80 3d 38 1d b6 3c
       -0.11427003 -0.8993472 0.06287239 0.02223073
000330 84 af 8d 3d a6 a8 da bd 3a b6 88 bd 54 56 52 bf
       0.069182426 -0.106766984 -0.06675382 -0.82162976
000340 f5 92 19 3e d8 a6 9e bb 1b 34 f3 3c c1 69 8d 3d
       0.14997466 -0.0048416667 0.029687932 0.069049366
000350 68 ed e5 bd 64 fa 75 3e 4e 76 9f bd 99 6a 3c 3c
       -0.11226922 0.24021298 -0.07786237 0.011500024
000360 6c ea 1a 3e 02 8e 92 3d 19 f7 74 3c 1b 81 6e 3e
       0.15128487 0.07155992 0.014951491 0.23291437
000370 66 7b 7f bd 6c 47 2b 3d e0 2d a5 bd 99 3e 9c bb
       -0.06237354 0.04181616 -0.080653906 -0.0047682044
000380 60 03 93 bd 9d 29 97 3d a1 f6 f7 bd b1 23 0b 3e
       -0.07178378 0.07380984 -0.121075876 0.13587834
000390 02 45 22 3d a2 d5 c3 bd bc b0 c8 bc e3 b4 5d 3e
       0.039616592 -0.095622316 -0.024498336 0.21651034
0003a0 3d aa b4 bd a8 4f a1 3d 56 0d 0c 3d 09 ad 33 bd
       -0.08821533 0.07876521 0.034192406 -0.04386619
0003b0 d8 cc 3f bc 09 16 57 be 7b 72 e3 bd 4c 2d cb bc
       -0.011706553 -0.210045 -0.1110582 -0.024801873
0003c0 53 f2 df 3d da 78 42 3c f9 87 2c 3d 93 0f bc 3e
       0.109348916 0.011869634 0.04212186 0.36730632
0003d0 b5 7d 80 3d 35 d7 d1 bc 29 bd 1b bd b1 4b 38 3c
       0.06273977 -0.025615314 -0.038022194 0.011248515
0003e0 b8 01 40 bd 66 b2 9d be 27 26 cd ba e0 9c a4 bc
       -0.04687664 -0.3080017 -0.0015651629 -0.020094335
0003f0 af 08 fc bd 1d 39 bd bd a0 1e 47 3c 13 fd 11 3f
       -0.12306344 -0.09239409 0.012153298 0.57026786

lstm.weight_hh_l0 f4 [512, 128]
000000 fc 72 84 bd f1 93 e8 3c 47 8c a9 bd 6d eb f2 bd
       -0.06467244 0.028390856 -0.08278709 -0.1186131
000010 ed bf 22 3c 36 25 6e 3d dc 4b 16 bc 97 9e 76 bd
       0.009933454 0.058140956 -0.00917336 -0.060209837
000020 0a e2 bd 3b 76 56 24 3d e8 19 2b bc e3 26 43 bd
       0.005794768 0.040121518 -0.010443188 -0.047644507
000030 21 8d a9 bc 8e dc 16 bd 5b de 5b bd 6c 72 a2 3d
       -0.020697178 -0.03683143 -0.05367885 0.079319805
000040 78 8e a1 bc 9b 01 2f 3d e0 26 2b bb 04 2a 93 bc
       -0.019721255 0.04272614 -0.00261157 -0.01796437
000050 8a ac 13 3c 59 40 91 3d 11 45 c2 3b db de 43 3d
       0.0090133045 0.070923515 0.0059286435 0.047819953
000060 cf 20 28 bd 8b ad 91 3b b1 b1 10 bd 10 e2 0e 3d
       -0.041046914 0.0044457368 -0.03532571 0.03488356
000070 c3 38 64 3c 32 7f 32 3d 4b d8 39 bd f8 b2 89 bd
       0.013929549 0.043578334 -0.04537229 -0.06723589
000080 f9 d4 da 3c dc d5 4a 3d f2 48 16 bd d7 b8 b1 3d
       0.026712881 0.04952036 -0.03669066 0.086778335
000090 4e a0 a7 bc c5 a1 9e bd a1 5b 14 bd 44 32 cc bc
       -0.020462181 -0.07745699 -0.036220197 -0.024926312
0000a0 ed 5e ab bb 6b fd 17 3c 12 58 9f bd 23 1a 31 3c
       -0.005229822 0.009276728 -0.0778047 0.010809454
0000b0 e6 d0 c6 bd fb 80 ed 3d ab 60 18 bb 80 08 b8 bd
       -0.09707813 0.11596867 -0.0023250978 -0.08985996
0000c0 01 3b 03 bd 99 3d e2 bc 3f 43 90 3d 43 0b 77 bd
       -0.032038692 -0.027617263 0.07044076 -0.060313474
0000d0 3a d8 8b 3d e0 ac 3a bb f6 77 87 bb d3 90 5e bd
       0.06828351 -0.002848439 -0.0041341735 -0.054337334
0000e0 20 6a c2 3a e9 24 0e 3d f3 e6 ce bc 72 95 0b 3d
       0.0014832653 0.03470317 -0.02525661 0.03407807
0000f0 3c 5e e6 3d ec 5c 12 bc 16 b8 2f bd 64 22 32 bd
       0.112484425 -0.008933287 -0.042900167 -0.04348983
000100 55 d4 ae 3c d0 3f 8f 3c ef 4d f1 3b 57 de 71 3d
       0.021341482 0.017486483 0.0073640267 0.05904993
000110 fe 78 d6 bd aa fc 89 bd da f0 dc bd e2 32 37 bd
       -0.10472296 -0.06737645 -0.10788126 -0.04472626
000120 51 37 41 3d 17 da 31 bd cd b4 03 3e a9 e0 94 bd
       0.047171894 -0.043420877 0.12861939 -0.07269413
000130 80 22 69 bd bd 83 80 bd cc f3 0e bd c6 cc 58 3d
       -0.056917667 -0.06275127 -0.03490047 0.052929662
000140 62 68 d2 bd 7a 6c a9 3d ba 89 17 bd d8 f7 44 3d
       -0.10273816 0.082726434 -0.03699658 0.048087925
000150 67 fa de bc 45 c5 b7 3d 81 f6 8c 3d c8 dd 9c bd
       -0.02721901 0.08973173 0.068829544 -0.07659489
000160 c5 61 be 3b a3 38 d0 3c e4 da 60 bd 06 d4 5c 3d
       0.005809995 0.025417631 -0.05489625 0.05391314
000170 aa c1 c8 bd 35 1d c2 3d 33 0b 50 bd 32 db cf bc
       -0.098025635 0.09478227 -0.05079193 -0.025373075
000180 dd 79 de 3d fb 76 a9 bc 74 ca f8 3d 8e e6 cf 3d
       0.10863087 -0.020686617 0.1214799 0.10151397
000190 97 2a 88 3d 92 50 96 bd 03 58 04 3c 50 ec b1 3c
       0.06648748 -0.07339586 0.008077624 0.021719128
0001a0 03 9c 88 3c aa 03 54 bd 4b 44 9d 3d 4e 19 1a bd
       0.016675955 -0.051761307 0.076790415 -0.03762179
0001b0 b9 53 bd bd 77 6b df bd ab 0b fb 3c ad 87 96 bd
       -0.092444845 -0.10909169 0.030645212 -0.07350097
0001c0 a7 61 56 3d 38 74 9b 3d f4 6f 23 3c 39 1e 49 3d
       0.052339222 0.07590526 0.009975422 0.04910109
0001d0 d8 89 68 bd 79 69 96 bd ae d2 f9 bd 20 b6 c5 3c
       -0.056772083 -0.07344336 -0.12198387 0.024134696
0001e0 64 a5 81 bd 71 aa 2e 3d 93 c1 34 bd 64 d9 67 3b
       -0.06330374 0.042643014 -0.04412992 0.0035377378
0001f0 62 4d 87 3d 37 af 94 3b 26 ea 0d 3d 44 11 d7 bc
       0.066065565 0.004537489 0.03464713 -0.02625335
000200 0c a4 74 bd ef 62 a4 3d c2 09 06 3d f8 55 c5 3d
       -0.05972676 0.080266826 0.03272415 0.09635538
000210 8e 2d c1 bd 57 da 92 3d 93 9a ed 3d 10 e4 33 3c
       -0.09432517 0.07170551 0.11601748 0.010979667
000220 51 db 41 3d 3f a5 5e bd f7 1e 6d bb 7c 42 83 3c
       0.047328297 -0.05435681 -0.0036181787 0.016022913
000230 17 7e 5a bd 38 81 7f bc bc 15 02 3e 59 01 8f 3d
       -0.053342905 -0.015594773 0.12703604 0.06982679
000240 aa 92 8e 3c e4 11 a8 3c f4 25 0a 3c 50 5e c8 bc
       0.01740392 0.020516343 0.0084319 -0.024459034
000250 e8 4b a8 bc 49 c0 a1 bc 4f 98 aa 3c 0b 3a 4a bd
       -0.020544007 -0.019745009 0.02082458 -0.04937176
000260 3e 96 7f 3c 37 57 bc bd 78 de be bd 4d a7 8f 3c
       0.015599785 -0.091963224 -0.09319776 0.01753583
000270 7c 48 83 bc 39 6e 45 3d 1a 48 7f bd 18 22 fe bc
       -0.016025774 0.04820082 -0.06232462 -0.031022117
000280 de 41 3d bc d1 c2 28 3e ca ea 91 3b 3e c2 61 3d
       -0.0115513485 0.16480567 0.004453038 0.055116884
000290 06 d1 b4 3d 7b 08 81 3c fc e7 41 bd 17 1f 75 bd
       0.088289306 0.015751114 -0.04734038 -0.059844103
0002a0 7d be e3 bd 25 ec 8e 3c 8d ea a3 bb 6a 0f 70 bd
       -0.11120317 0.017446587 -0.005002326 -0.05860845
0002b0 7e 1c dc 3d 91 26 70 bb 80 c5 26 bd b7 03 94 bd
       0.10747622 -0.003664408 -0.040715694 -0.07227271
0002c0 c6 d8 dc 3d 95 dd 50 3c 49 08 e7 3c b8 57 84 bd
       0.10783534 0.012748142 0.028202193 -0.064620435
0002d0 8b df d6 bc e7 e6 57 3d 2a 39 52 bd fc ba 45 3e
       -0.02622964 0.05271044 -0.051324047 0.1930961
0002e0 98 ff fb 39 20 f6 73 bd 84 0e 0a bd bd f8 35 bd
       0.00048064883 -0.059560895 -0.03370525 -0.04442667
0002f0 7b c8 06 bd 21 01 58 bd a8 d1 a3 3d 64 4d 65 bd
       -0.032906037 -0.05273545 0.07998973 -0.05598201
000300 85 2f 8d bd cd 6d 7f bd e5 bf 78 bd ed ed 26 3c
       -0.06893829 -0.062360574 -0.06072988 0.010188562
000310 16 18 15 bd 8d 74 17 3d c5 ef 56 bb ba 85 f2 bc
       -0.036399923 0.036976386 -0.0032796722 -0.029604781
000320 78 34 38 bd 05 eb e2 bc 75 8c d9 bd 0b 42 e1 bd
       -0.044971913 -0.027699957 -0.10622493 -0.10998925
000330 4d 4a 66 bd 4a b8 37 3c 8b 13 f6 bc 8b e2 2f bd
       -0.056223202 0.0112133715 -0.030038616 -0.042940658
000340 d0 95 9c bd a4 67 01 bc 38 37 c6 3d 55 08 38 3d
       -0.07645762 -0.007898245 0.09678501 0.04492982
000350 31 bf bc bd a9 28 a9 3d e2 ea a9 bc 57 fb 5a 3d
       -0.09216154 0.082597084 -0.020741884 0.053462353
000360 2c c5 72 3d 6a 78 39 3d 55 28 3c bc a6 91 54 3d
       0.05927007 0.04528085 -0.011484225 0.051896714
000370 d9 70 d7 3d fd 44 80 3d 89 c4 c1 3c e9 d6 ee 3c
       0.10519571 0.062631585 0.023653286 0.029155212
000380 f8 a3 97 bd 2b 7d 59 3d d9 88 bf bc 68 0a 04 be
       -0.074043214 0.053097885 -0.023380684 -0.12894595
000390 a3 81 9b bd 98 1f 29 bd f4 cb c4 3b 4b 9b 73 bd
       -0.075930856 -0.041289896 0.0060057584 -0.05947427
0003a0 7f cc e8 bb 13 e0 0e 3d 28 b3 97 bd 6c c9 d4 bc
       -0.007104456 0.034881663 -0.07407218 -0.025974952
0003b0 1d b1 93 3c e8 97 90 bc 03 bf f0 3d 9e d9 8c bd
       0.01802879 -0.01765056 0.117551826 -0.06877445
0003c0 45 59 29 3d 28 70 7b bd b4 01 53 3a 6f 06 20 bd
       0.0413449 -0.061386257 0.0008049265 -0.039068636
0003d0 f9 10 25 3b e1 00 b8 bb df dd 85 bc 57 72 98 bd
       0.0025187118 -0.005615339 -0.016341148 -0.074436836
0003e0 c2 6e e6 bc fb 77 00 3d 76 df 95 bd 61 5f bb bc
       -0.028128985 0.031364422 -0.073180124 -0.022872629
0003f0 38 90 63 bd 14 ad 57 bd 0e f4 e1 b9 f2 32 b5 bd
       -0.05555746 -0.052655295 -0.0004309718 -0.08847608

lstm.bias_ih_l0 f4 [512]
000000 31 5e 00 bb ff 02 a5 bd 05 83 06 3e b3 76 19 bd
       -0.0019587392 -0.08057212 0.13135917 -0.037466716
000010 2f f7 00 3c 50 2c 96 3d 6b 58 32 3d bb 1c 7c 3d
       0.007871433 0.07332671 0.043541353 0.061550837
000020 a5 aa 90 bd 7b b5 14 bd 17 bc 6c 3d 30 31 a5 3c
       -0.07063798 -0.036305886 0.057796564 0.020165056
000030 f4 97 07 3e 96 63 2a 3e be 9e 85 bd 25 53 59 3d
       0.1324156 0.16639552 -0.06524418 0.05305781
000040 c1 33 94 3d 59 88 a2 bd 63 e4 6f bd 93 4e 5f 3d
       0.07236434 -0.079361625 -0.058567416 0.054518294
000050 05 33 89 bc 08 92 4e bd a4 53 e6 3d 56 6b 3d 3c
       -0.01674796 -0.050432235 0.11246422 0.011561235
000060 e3 0f db 3c a3 ec 8b bd 54 99 fe 3d d8 98 4b bd
       0.026740974 -0.06832244 0.12431589 -0.04970631
000070 c5 e9 8c bd b0 e9 9a 3c 86 0a 93 bd 57 c5 b4 bd
       -0.068805255 0.018910259 -0.071797416 -0.08826702
000080 fd 49 11 bc 95 2a 29 3b df b7 b2 bc ed 7f 19 bd
       -0.008867738 0.0025812734 -0.021816192 -0.037475515
000090 44 3f e4 bd 3e 74 a7 3d 82 c2 0f 3d 22 be 97 3b
       -0.111448795 0.08176468 0.035097606 0.00463082
0000a0 d7 32 da 3d ea 86 d1 3c 84 26 bb 3d 0a e6 e2 3c
       0.10654228 0.025577027 0.09138206 0.027697582
0000b0 33 c7 fe 3a 07 61 a6 bd ff 16 8a 3d 07 ba 9c bc
       0.0019438028 -0.08123975 0.067426674 -0.019131673
0000c0 05 bc bc 3b 9c 90 86 3d a2 ae b5 bc 3c e7 89 3c
       0.0057597184 0.06570551 -0.022177998 0.016833894
0000d0 ce 57 90 bd 5a 43 75 3c 17 f6 d5 bc 06 0b c2 bc
       -0.070479974 0.014969671 -0.026118321 -0.023686897
0000e0 5b 2e 5f bd 67 4a 72 bc 50 7b 40 3c 11 72 df 3c
       -0.054487567 -0.014788247 0.01174815 0.02727607
0000f0 b1 8a a8 3d 4a 57 86 3d 3c e2 e8 bd 13 d4 2f bc
       0.08229578 0.06559618 -0.11371276 -0.010731715
000100 3f 9b 4b 3c a8 c9 7f 3d db 0c 2b 3d b1 4e 01 3e
       0.01242715 0.062448174 0.041760307 0.12627675
000110 82 8a 26 bd 22 67 50 3d 86 c2 21 bd b6 dd df 3c
       -0.040659435 0.050879605 -0.039492153 0.0273274
000120 56 d4 6b bc ef e5 ce bd c1 80 1b bd 31 44 d3 bd
       -0.014393887 -0.1010245 -0.037964586 -0.10315741
000130 97 b3 5d 3d 3b 50 f1 3c ab 71 18 3d 3e f3 c6 3c
       0.05412635 0.029457202 0.037217777 0.024285909
000140 fa ea e3 bb aa a2 4e bd b9 40 a7 bd 1d 5c 62 3c
       -0.0069555016 -0.050448097 -0.08166642 0.013815907
000150 6f 85 30 3c a4 8d 39 3d 93 88 14 3e 61 60 ae bd
       0.010774001 0.045301095 0.14505224 -0.085144766
000160 29 ab 96 3c a6 8f 7a 3c 73 c4 34 3c e9 07 b2 3d
       0.018392162 0.0152930375 0.011033165 0.08692915
000170 b4 37 20 3e c9 cc b0 bb 4f 85 a6 3d 0d 59 61 bd
       0.15646249 -0.005395506 0.08130895 -0.055016566
000180 8e 34 38 bd cd a8 c9 bd 8f 56 9c 3d 9e a6 7b bd
       -0.044971995 -0.09846649 0.07633697 -0.061438195
000190 96 bb 9a bc 19 4f 41 3d dc 84 c1 bd 6f 88 ed 3d
       -0.018888276 0.047194574 -0.09449169 0.11598288
0001a0 7b 70 84 3d cc b8 75 bd 61 f7 a9 3d 9b 26 e3 3d
       0.064667664 -0.05999069 0.08299137 0.11091348
0001b0 0e 09 be 3d 41 92 85 bd a6 e3 de 3c 20 17 de bd
       0.09279071 -0.06522036 0.02720816 -0.108442545
0001c0 f9 6a 97 bc 4e 2e b7 3d 35 26 79 bd 7b 18 11 bb
       -0.018483626 0.08944379 -0.060827453 -0.0022139836
0001d0 80 73 f9 3c 20 ec 43 bc e6 43 78 b9 20 97 39 bd
       0.030450583 -0.011958152 -0.00023676417 -0.04531014
0001e0 8e 05 75 3d 2d 0e 1c bd 49 a8 81 3d 86 7e 01 3e
       0.05981975 -0.038099457 0.06330926 0.12645921
0001f0 97 12 ae bc 05 23 38 3c 9b 36 33 bd a4 06 73 3d
       -0.021249099 0.011238818 -0.043753248 0.059332505
000200 9d cc f9 3d 8b e7 ee 3c c5 bf d5 3d c8 5a 45 3c
       0.1219723 0.029163143 0.10436968 0.01204557
000210 4d e7 76 bd e3 1f 77 3c 22 c0 46 bd 2f ae 9d 3d
       -0.06027918 0.015083286 -0.048523076 0.076992385
000220 e1 1f 75 bd 60 cc 98 bd 33 5f bb 3d 72 bb 12 bc
       -0.059844855 -0.074608564 0.09149017 -0.008955823
000230 64 5d 47 3d 6f b3 79 3e 03 de 86 3d c7 95 20 3d
       0.04867305 0.24384855 0.06585314 0.03920534
000240 77 f4 0a bd 71 3a a3 bc 0b a4 92 bd 65 92 11 3d
       -0.033924546 -0.019925328 -0.07160195 0.035540003
000250 8e 96 6d 3d e3 0f 23 bd f8 0d 86 3d 20 c2 cb 3d
       0.05800491 -0.039810073 0.06545633 0.09949136
000260 81 73 6b bd 17 d0 53 3d a0 db b1 3d 5f ba 82 3d
       -0.0574832 0.05171212 0.08684468 0.06383204
000270 1a 36 5b bd 7d 49 0f 3c 08 0c a4 3d 54 02 82 3d
       -0.053518392 0.008745548 0.08010107 0.063481
000280 51 aa 45 3d a1 3e 55 bd b4 ab 74 3d b8 a6 24 3e
       0.04825813 -0.05206168 0.05973406 0.16079223
000290 db e2 5f 3d 4c 16 44 bd 59 31 ef 3d de 28 99 3d
       0.054659706 -0.047872826 0.11679334 0.07478498
0002a0 60 20 45 3d fb 28 9e bd d8 b7 8e bd 6e 1e 34 bc
       0.04812658 -0.0772266 -0.06968659 -0.010993583
0002b0 55 24 64 bd 8e 2a 85 bc 51 bc 64 bd 0c 1b be 3c
       -0.05569871 -0.016255643 -0.055843655 0.023206256
0002c0 3f c7 17 3d 50 07 e9 3b 77 45 8c 3d 81 92 ad 3d
       0.03705525 0.0071114674 0.06849187 0.08475209
0002d0 29 8c 80 3c 5f 6c ef 3c 7b af 2e 3d 11 0d 31 3d
       0.015691834 0.02922648 0.04264782 0.04322535
0002e0 86 38 21 bd f9 06 24 bd 44 91 1a 3e 95 2c 66 bd
       -0.039360546 -0.040045712 0.15094477 -0.05619486
0002f0 80 39 60 bd d0 4f bd 3c 20 36 c0 bd 7e df 86 3d
       -0.054742336 0.023109347 -0.093853235 0.065855965
000300 cf 77 1b bc 85 e3 5d 3d 0b 19 8b bc 6b a8 05 3e
       -0.009489014 0.054172058 -0.016979715 0.13052528
000310 9e 9f 1c bd af 28 2a bd 3f 77 9a 3c a7 fe a0 3c
       -0.03823816 -0.041542705 0.01885569 0.019652678
000320 cb 20 10 3d 02 3c 16 3e 81 11 92 3c 30 19 1e bd
       0.035187524 0.14671329 0.017830612 -0.03859824
000330 3e 3c da 3d 88 78 6f 3d 35 b3 15 3d dd d8 7f 3c
       0.106560215 0.058464557 0.03654786 0.015615669
000340 22 d0 74 bd 1f ee 14 3d 3c cb 88 bc 4f a9 d8 bd
       -0.059768803 0.036359902 -0.016698472 -0.10579168
000350 b4 76 50 bc 9f df 2b 3d 33 b2 97 3c 97 9d 1f bc
       -0.0127236135 0.04196131 0.01851759 -0.009742162
000360 18 be 95 3c 3a 63 c2 3d 54 b1 a0 bd 6b d0 8e bd
       0.01827912 0.09491582 -0.07846323 -0.06973346
000370 34 82 4b 3d f2 0e da bd 9e a6 00 3e e5 f6 c0 3c
       0.04968472 -0.10647382 0.1256356 0.023555228
000380 8c 6e ce 3d 3b 44 4e 3d 24 e8 cf 3d e3 23 47 bc
       0.10079679 0.05035804 0.10151699 -0.012154552
000390 54 3e b9 3d 2f a9 6a bd 5d c6 46 bc d7 e3 52 3a
       0.09045091 -0.057290252 -0.012132254 0.0008044815
0003a0 7d 0f 9d bc 0a 4d df bd 54 c0 95 3d e0 6c fb 3d
       -0.019172424 -0.10903366 0.07312074 0.12276626
0003b0 41 f9 01 3e 27 56 61 3d 04 04 4b 3d 1b 49 b3 bd
       0.12692739 0.055013802 0.049564376 -0.08754178
0003c0 c5 52 f5 3d 29 af 4c 3e e3 9f 3f bc 9f 1d 16 3d
       0.11978678 0.19988693 -0.011695835 0.036649343
0003d0 28 ed 05 3c e4 0d 3d 3d 71 88 fd bb e3 9e 32 3d
       0.008174218 0.046155825 -0.0077372123 0.043608557
0003e0 9a e4 a4 3d 4e ab 98 bd c1 37 f2 3d bf a2 59 3c
       0.08051415 -0.07454549 0.118270405 0.013283431
0003f0 f8 e9 b1 bc 6d 26 87 bd 88 09 31 bd 93 e1 cf 3d
       -0.02171801 -0.06599126 -0.04322198 0.10150447

lstm.bias_hh_l0 f4 [512]
000000 e1 90 19 bc 43 6d a8 bc 87 41 91 3d 02 18 92 bd
       -0.009372921 -0.020559913 0.070925765 -0.071334854
000010 c9 87 82 bd 1d 53 8a bd 79 e0 e5 bd a6 6e b3 bd
       -0.06373555 -0.06754134 -0.112244554 -0.08761339
000020 0d 35 26 3d 0a 84 bc bd a1 1a 15 3e c3 17 57 bd
       0.040577937 -0.09204872 0.1456094 -0.052512895
000030 95 f2 e7 3c f4 57 d4 3d 1e 28 ae 3d b8 7c e5 3b
       0.028313914 0.10368338 0.085037455 0.007003393
000040 ea cf 95 3b 56 b1 4c bd 77 9a 71 3d ed d1 aa bd
       0.0045719044 -0.04997381 0.0589852 -0.083408214
000050 ea 3c f8 3c d0 c7 99 3d dc 55 ce 3d 57 49 59 3d
       0.030302484 0.07508814 0.1007497 0.053048458
000060 a3 b1 40 bd 85 f9 85 3d 45 89 42 3d c2 86 b4 3c
       -0.047044408 0.06541733 0.04749419 0.022036914
000070 c0 f2 26 bc 3b 55 02 bb 41 5f 89 bd c6 38 1f 3d
       -0.010189712 -0.0019887227 -0.06707621 0.038872503
000080 3a 7d 9e bd d6 a9 2f bd 8a 0f c2 3c 7e 46 8c ba
       -0.07738729 -0.042886578 0.02368905 -0.0010702161
000090 9b 01 9f bd 3e 1c 66 bc e2 40 de 3b de 68 c4 bd
       -0.07763978 -0.014044819 0.006782637 -0.09590314
0000a0 1b 6f c9 bc e6 55 8a 3b 39 d3 bd 3c c5 ac 37 bd
       -0.024589112 0.0042216657 0.023172008 -0.0448425
0000b0 9e 92 96 3c 84 2e e1 3a f6 00 92 bd 6c d5 47 bc
       0.01838046 0.001718 -0.071290895 -0.01219688
0000c0 71 53 cf bc 16 85 1c bd d5 50 c8 3d 23 7c fb bc
       -0.025308343 -0.03821286 0.097810425 -0.030698841
0000d0 2a 00 03 3d a6 26 8d 3d 81 17 94 bd 84 51 0e bd
       0.03198258 0.06892137 -0.072310455 -0.034745708
0000e0 0a d9 b4 3c c8 c9 ba bd b0 29 10 3e 8c 63 30 3d
       0.022076149 -0.09120518 0.14078403 0.043063685
0000f0 ba 74 19 3c c9 a7 84 3d 84 d0 51 bd 9d 28 6c bd
       0.009366209 0.06477315 -0.051224247 -0.05765592
000100 2e 2e 78 bd 17 27 eb 3c 3e 2e 88 3d 36 04 0b 3e
       -0.060590915 0.028705163 0.06649445 0.13575825
000110 7d 12 10 bd fc 35 6a bd 2a eb 2f 3d 35 8f b7 3d
       -0.03517388 -0.05718039 0.04294888 0.089628614
000120 8d 45 75 bd 80 86 05 bd c1 d7 74 bd 93 9d be bd
       -0.059880782 -0.032598972 -0.05977607 -0.09307399
000130 a0 04 34 3d c6 c4 ae bd b9 9e df 3d 20 e4 8e 3d
       0.043949723 -0.08533625 0.10918946 0.06977105
000140 74 e8 e3 bc f3 d8 a1 bd 89 e5 d1 bd 57 a8 d3 bc
       -0.027820803 -0.07902708 -0.102488585 -0.025837107
000150 66 af 98 bc 0d 3c c2 3d b6 cb d9 3d f6 5a 5b 3d
       -0.018638324 0.0948411 0.10634558 0.053553544
000160 aa fc cc 3d e7 34 3f 3d de 6f c4 bd 61 40 d7 bb
       0.10009129 0.04668131 -0.095916495 -0.006568954
000170 8c b6 49 3c 21 08 4e bd 88 80 c6 bc 01 e1 00 3c
       0.012311589 -0.05030072 -0.02423121 0.007866145
000180 aa 12 d9 bc ae 83 1b bc f1 79 e0 3d d5 f8 fe bb
       -0.026498158 -0.009491844 0.109607585 -0.007781128
000190 2d 4a cc 3d 30 16 12 3d 31 9e 22 bd 1a 48 af 3d
       0.099750854 0.03566569 -0.039701644 0.08558674
0001a0 ef 4e a7 3d d4 1e 3d bc ae be 8f bc 6b ae fd 3c
       0.08169352 -0.0115429945 -0.017546978 0.030966958
0001b0 21 90 18 3d e1 2b b1 bc eb 2b 39 bc 7d a8 cf bd
       0.037246827 -0.021627368 -0.011301975 -0.101395585
0001c0 bc a4 d1 3d ba 10 f5 3d 06 de f3 3c c0 a8 b9 3c
       0.10236499 0.11966081 0.029768955 0.022663474
0001d0 14 43 50 3d f0 bb af bd b9 3d 88 bd dd f9 27 bd
       0.05084522 -0.08580768 -0.06652398 -0.041009773
0001e0 5c fe be 3d 8f b1 40 3d 63 bf dc 3c 72 e1 ab 3d
       0.09325859 0.047044333 0.026946729 0.0839261
0001f0 8a 78 ba 3c 89 b3 11 3d db e9 2f bd 7e 08 37 3d
       0.022762556 0.03557161 -0.04294763 0.044685833
000200 b4 a2 e8 3c 38 f5 3f 3d a2 f2 15 3e 6c a5 29 3d
       0.028397895 0.04686472 0.14643338 0.041417524
000210 62 16 be bc 67 b0 c2 3d 83 fe a1 3d c9 45 62 bb
       -0.023204032 0.09506302 0.079098724 -0.0034526458
000220 75 b4 70 3d 1e b5 7c bd 31 ef e8 3d 83 c8 a7 3c
       0.058765847 -0.061696164 0.11373747 0.020481354
000230 74 5d 64 3d 4a 0a 07 3e e0 e4 d7 3d 1c 5d 3d bd
       0.055753186 0.13187519 0.10541701 -0.046231374
000240 c9 ed 9d bd 3b e8 ff bc 3c c3 38 bd f6 d1 93 3d
       -0.077113695 -0.031238666 -0.045108065 0.07217781
000250 68 1c 92 3d db 53 22 3d 98 b0 ac 3d 8c f2 ed 3c
       0.07134324 0.039630752 0.0843212 0.02904632
000260 8e 7c ee bc 30 72 9e bd 32 71 d6 bb f9 c2 9c 3d
       -0.029112127 -0.07736623 -0.0065442557 0.076543756
000270 46 50 02 bb 69 fc 74 bd ff a1 82 bd 6a 28 80 bc
       -0.0019884272 -0.05981103 -0.063785546 -0.01564427
000280 fd 29 29 bd 6a 9e 3c bd c6 04 91 bc f3 36 83 3e
       -0.04129981 -0.046049513 -0.017702471 0.2562786
000290 b7 f8 db 3c 5d ad ce bc 75 13 d9 3d 37 4c 91 3d
       0.026851995 -0.02522915 0.10599414 0.07094615
0002a0 bf 94 a2 3d f9 a1 88 bb 40 97 e1 bc 4d 28 88 3d
       0.07938527 -0.0041696993 -0.027537942 0.06648312
0002b0 33 e7 ac bd 4b 0c a8 bd ef ed 5b bd 0d 8a 60 bd
       -0.08442535 -0.0820547 -0.053693708 -0.054819155
0002c0 7a 97 c4 bc 39 94 20 bd 2b 8c 4f bc 51 be a6 3d
       -0.02399801 -0.039203856 -0.012667696 0.08141769
0002d0 cf bc 87 3b 55 8f ff 3d e9 86 7e 3c 57 8f 88 3d
       0.004142381 0.1247851 0.015535095 0.06667965
0002e0 27 04 ca 3c 8d 2f 0b bd f7 56 d3 3d 5c 54 a8 bb
       0.024660183 -0.033980895 0.103193216 -0.0051370095
0002f0 85 b3 cc bc ef 6d 77 bb 29 10 e9 3c 77 af c6 3a
       -0.024987945 -0.0037754735 0.028450089 0.0015158494
000300 5e 75 81 3d 1c e3 c8 3d d0 57 09 bc df 07 0e 3c
       0.06321214 0.09808943 -0.008382753 0.008668869
000310 d9 0a 3f 3d 10 10 4b 3d ee 50 8a bd 11 c3 9c 3c
       0.046641205 0.049575865 -0.06753717 0.019135984
000320 51 0f e3 bc fc ec d9 3c 3a 69 34 bc aa fa 2c bd
       -0.027717264 0.02660226 -0.011011416 -0.04223124
000330 71 d4 27 3e 49 a3 5d 3d 0e ab e0 3c 98 69 b2 3c
       0.16389634 0.0541108 0.027425315 0.021778867
000340 ba 73 c5 bc 6e 6a 29 3d 43 5f 48 3d 7d 6d e1 bc
       -0.024103034 0.041361265 0.048918974 -0.027518028
000350 46 61 88 3d 6a 07 44 bd ae 96 72 3d 73 63 0e bd
       0.066591784 -0.047858633 0.05922573 -0.03476281
000360 b2 6e 17 bd e2 00 86 3d 06 5c bc 3c 1c c4 8d 3d
       -0.0369708 0.06543137 0.022993099 0.069221705
000370 3b be 40 3d 35 76 b5 bc cd a0 35 3c b1 49 64 3d
       0.047056418 -0.022151092 0.011085701 0.05573434
000380 26 5e 0f 3e 0a 0b 61 3d 80 4e 23 3d 3d fb 94 3d
       0.14000759 0.05494217 0.039869785 0.072744824
000390 cb 41 a6 3d e6 d2 5b 3d ea 6a c1 bb 2d b3 b0 3d
       0.08118018 0.053667925 -0.0059026377 0.08627925
0003a0 de 6e 98 3d 43 2d 99 3c 5f 7e f1 3d 91 56 c4 3c
       0.07443021 0.01869834 0.117916815 0.02396706
0003b0 b2 05 0c 3e 0a ce 9c 3d ff 6b eb bc c6 ba 21 bd
       0.13674048 0.07656486 -0.02873802 -0.03948476
0003c0 a3 9f 9c bc 7c 59 5a 3e ef 38 89 bc 54 da 4b 3c
       -0.01911909 0.21323198 -0.01675078 0.01244219
0003d0 4f 7e 36 bc 09 9a 9b 3d 6b 39 17 bd 7a 48 28 bd
       -0.011138513 0.07597739 -0.036919992 -0.041084744
0003e0 29 12 89 3c 1d 11 aa 3c 51 8a 30 3d 64 10 ae 3d
       0.016732292 0.020760113 0.04310066 0.0849922
0003f0 24 3d aa bd f3 62 15 3d 1a 73 e6 bc fd c0 71 3d
       -0.08312443 0.03647132 -0.028131057 0.05902194

lstm.weight_ih_l1 f4 [512, 128]
000000 17 39 4e bd 2b a1 09 bb 6d 04 5b 3c c4 3f 62 bd
       -0.050347414 -0.0021000605 0.013367754 -0.055236593
000010 38 fd 83 bd cb 20 16 be 9d 2e f1 bc be 84 a1 3d
       -0.06444782 -0.14660947 -0.029441172 0.07886647
000020 09 91 6b bd 4d ed e6 3b 66 cd 11 3e 06 24 71 3d
       -0.057511363 0.0070473314 0.1423851 0.058872245
000030 0d de 3a 3d e1 9b a2 3d 8f 6f f6 3c e6 c4 3c bd
       0.04562192 0.07939888 0.030082492 -0.046086214
000040 ac d5 f5 3b f7 19 80 be fd c3 97 3d 90 16 0f 3d
       0.0075022783 -0.2501981 0.07410429 0.034933627
000050 50 83 e3 bb a5 03 1e 3b 39 72 62 ba 10 c7 6f bd
       -0.006943144 0.002411106 -0.00086382363 -0.05853945
000060 85 01 e6 bd 91 3b 5e 3e 6b c3 ea bd 36 da 24 3e
       -0.112307586 0.2170241 -0.11463054 0.16098866
000070 af 69 16 be be f4 8b 3c 69 eb b7 3c e6 9d 00 3e
       -0.14688753 0.017084476 0.02245112 0.12560233
000080 da 18 c9 3d 29 3d 32 3d 01 85 15 bd fe 43 23 be
       0.09819193 0.043515358 -0.036503796 -0.15943906
000090 bc e0 eb bc f6 9e 89 bd 60 9e 09 3e 04 d7 dd bc
       -0.028793685 -0.067197725 0.13439322 -0.027080067
0000a0 c1 28 38 bd 7e 18 97 bc 78 76 a0 3d 92 ab 90 3d
       -0.04496074 -0.018444296 0.07835096 0.070639744
0000b0 7b 22 d8 3d 5c 90 26 bd 23 b9 07 be 61 44 08 be
       0.10553452 -0.040665016 -0.13254218 -0.13307334
0000c0 63 87 70 bd 83 1c 33 3d 9b 14 52 bd 00 06 4c 3c
       -0.058722865 0.043728363 -0.051289182 0.012452602
0000d0 d4 c0 59 3d 98 1f 9a 3b 9e 51 37 3e 08 83 9d 3d
       0.05316241 0.0047034733 0.17902228 0.07691008
0000e0 70 1f b0 3c f8 bc b6 bd eb 81 be bd e3 b6 56 bd
       0.021499366 -0.08922762 -0.09302124 -0.052420508
0000f0 33 99 01 3d 4c 94 0c bd 76 94 51 bc a1 ff 32 bd
       0.031640243 -0.034321114 -0.0127917435 -0.043700818
000100 ab 29 46 3d e2 02 7d 3d a5 71 20 3e ac 97 0f 3d
       0.04837958 0.061770327 0.15668352 0.035056755
000110 a8 9b b3 3d 1e 04 79 3d 2e a6 a6 3d 44 c2 01 3d
       0.087699234 0.060794942 0.08137165 0.031679407
000120 28 74 cd 3d d9 16 06 3e 5a 9c ba bd 35 38 fc bb
       0.10031921 0.13094653 -0.09111853 -0.00769713
000130 c4 d7 50 3d 70 07 8b 3d fb ff 08 3d 32 4f aa 3c
       0.05098702 0.06788528 0.033447247 0.020789716
000140 8e 01 1e 3d 2c 94 68 3d 9f 6a 8c 3c 2d 31 dd bc
       0.0385757 0.056781933 0.017140685 -0.027000988
000150 14 63 67 3d 11 10 bf bd 0d 1b 30 3d 03 56 0d 3c
       0.056490973 -0.09329236 0.042994548 0.008626464
000160 f8 61 e2 3c f2 07 2e 3d c3 df 5d bd 85 3c 33 3e
       0.027634606 0.042488046 -0.054168474 0.17503555
000170 20 68 89 bd 4c 11 2c 3e 47 51 d1 bd 9f 64 52 be
       -0.067093134 0.16803473 -0.102205805 -0.20546196
000180 cd 0c be bd b8 e1 02 3d 81 2b a6 bc 3b 05 0a bd
       -0.09279785 0.031953543 -0.020284416 -0.033696394
000190 1d 3d 54 3e 34 bf f9 bd 60 a2 5e bd 32 fb 59 bc
       0.20726438 -0.12194672 -0.05435407 -0.013304519
0001a0 25 3d 12 bd c6 ec a4 3a 1a f6 da bb 91 a6 00 bd
       -0.035702843 0.0012582771 -0.0066821696 -0.03140885
0001b0 fb e1 18 39 0e 13 dc 3d 63 f5 dc 3d 0c 78 48 bd
       0.00014580034 0.10745822 0.10788991 -0.04894261
0001c0 da af 9f bd d5 d5 da bb 8b 7f b6 bc be 34 34 be
       -0.07797213 -0.006678323 -0.022277614 -0.17598245
0001d0 c1 69 c7 3d c7 0b 88 3d 75 47 38 bd 6f 5f c1 3d
       0.09736968 0.06642871 -0.04499002 0.09442031
0001e0 a7 49 4c 3c 07 87 94 bd a5 e8 85 bd 74 b7 5c 3d
       0.012468732 -0.07252317 -0.06538514 0.053885892
0001f0 9d 67 17 3e c6 93 b0 3c 02 2d fb bb 90 99 2e 3e
       0.14785619 0.021554839 -0.0076652775 0.17050767
000200 8b 1d 68 3d 85 21 44 3d 5d 7d 74 bd 15 78 81 39
       0.0566688 0.04788353 -0.05968987 0.00024694265
000210 f7 0c 1a be 04 36 ab bc a4 03 d3 3d ce de 82 3d
       -0.15044008 -0.02089978 0.10303429 0.06390153
000220 e4 f5 96 bc e9 b9 4d 3d 77 fc b6 bd 8d 97 60 bd
       -0.018427797 0.050226126 -0.089348726 -0.05483203
000230 5d 23 7d bd a2 b3 fb 3d a7 b2 04 3e 2d 81 18 3e
       -0.061801303 0.122901216 0.12958775 0.14893027
000240 6b 2a 18 bd d5 06 fb bc 8a 6f fe 3d ba 1f b1 3d
       -0.037149828 -0.030642906 0.12423618 0.086486295
000250 2a 85 3c 3d 44 e5 f2 bd cb 64 05 3d 04 13 c3 3d
       0.046025433 -0.11860135 0.032566827 0.09525111
000260 95 f5 10 be 4b 9f 76 bd 11 7c ba bc f8 8d ae bc
       -0.14156182 -0.060210507 -0.022764238 -0.02130793
000270 9d 86 89 bd f4 1a ad bd 10 87 80 bd ec 36 0f bd
       -0.067151286 -0.084524065 -0.06275761 -0.034964487
000280 3d f4 f2 3d 78 e8 92 bd 3a 30 87 3b 52 5c f9 bd
       0.11862991 -0.07173246 0.004125622 -0.12175812
000290 3d 04 b6 3c bc 59 8e 3d 04 9e d7 3d 50 ee c1 bc
       0.022218818 0.06950709 0.10528186 -0.023673207
0002a0 47 85 22 be 3d 75 e1 3c e4 e4 6a bc 30 22 d6 3c
       -0.15871154 0.027521724 -0.014336798 0.026139349
0002b0 28 21 11 3e 9f f5 ea bd 9a db 36 3c 36 f9 3a 3d
       0.14172804 -0.1147263 0.0111607555 0.045647822
0002c0 b9 7e 98 3d d8 49 27 bd 2d 30 2b bc e2 f8 03 3e
       0.074460454 -0.040841907 -0.010448498 0.1288791
0002d0 9c 46 32 bd 84 09 23 39 ef ca d7 3c 32 84 23 3b
       -0.04352437 0.00015548436 0.026341883 0.002495062
0002e0 fe 29 c9 bc 3c e8 5a 3d 02 89 87 3d 89 d4 fa bd
       -0.024556156 0.053444132 0.06617929 -0.12247569
0002f0 f0 80 e4 ba ba 25 24 3c cb 26 4e 3d 5f 91 05 bd
       -0.0017433446 0.01001876 0.050329965 -0.03260934
000300 73 71 05 3e 1c 91 de 3b b1 ab 47 3d c1 26 4c 3c
       0.13031559 0.0067922007 0.048747722 0.0124604115
000310 ca 3e 53 3d 08 62 f4 3c 21 ff 29 b9 a7 98 cf bd
       0.051573552 0.029831901 -0.00016212139 -0.10136538
000320 1f 9e 7f bd a3 4e 58 bc 61 ca 15 be a5 f7 d0 3c
       -0.062406655 -0.013202342 -0.14627983 0.025508711
000330 3b f1 57 3c 06 77 ac 3d 51 0e c9 3d 82 bd f6 bd
       0.013180072 0.084211394 0.09817184 -0.120478645
000340 73 05 0c 3d ed 27 b9 3d 02 98 17 bd 67 69 c3 3b
       0.034184884 0.09040818 -0.0370102 0.0059634927
000350 af 45 05 3b 25 00 02 be 85 32 1c be 60 1c 96 bb
       0.0020335724 -0.12695368 -0.15253647 -0.0045810193
000360 91 42 1f bd af 5f dc bc 58 00 e2 bc b9 ae 33 3d
       -0.038881842 -0.026901094 -0.027588055 0.0438678
000370 aa 69 43 3d 47 a3 29 bc 79 0b 6b bd 3f 7e 84 bd
       0.04770819 -0.01035387 -0.057383988 -0.06469392
000380 4a 98 46 bd 8a 7a 9a bd 3f 68 db 3c 95 6f 6b bd
       -0.048485078 -0.07542904 0.026783107 -0.05747946
000390 59 5e 97 3d 9a 3c 13 bd a3 10 e3 3b 87 79 bf bd
       0.07391042 -0.035946466 0.0069294735 -0.093493514
0003a0 96 2b 1a 3d b4 13 42 bd 27 83 62 3c 28 a1 60 3c
       0.037639223 -0.04738207 0.0138252145 0.013710298
0003b0 51 75 22 3d 89 42 db bc 0e fa 36 3e 01 32 0a 3e
       0.039662663 -0.026765125 0.17868826 0.13495637
0003c0 77 31 ad 3d 30 dc 8f bd 77 20 6a 3c 94 d2 97 bd
       0.084567 -0.07024419 0.014289967 -0.074132115
0003d0 21 d6 0a bd 88 24 d4 bd 82 20 8d 3d 22 ab 8b 3d
       -0.033895615 -0.1035853 0.06890966 0.0681975
0003e0 c9 10 75 3b 00 a9 69 3c 7f 6e b8 bd be 4e 61 3d
       0.0037394038 0.014261484 -0.090054505 0.055006735
0003f0 29 9d 9e bd 0f 2a 2b be 49 55 00 3e 63 3d ab bc
       -0.0774482 -0.16715263 0.12532534 -0.020903295

lstm.weight_hh_l1 f4 [512, 128]
000000 3e 06 24 3c 99 e9 b2 bb d1 40 6f 3c d3 4d 4a 3d
       0.010011254 -0.005459976 0.014602856 0.049390625
000010 a8 8d 0f 3c 62 a8 c6 3c 88 e5 1e 3e ff 7c 05 3e
       0.008761801 0.024250213 0.15517247 0.13035963
000020 d8 1a 00 be 4c 65 89 3c f8 b0 f8 3c 73 16 0e bb
       -0.1251024 0.016771935 0.030357823 -0.0021680861
000030 f8 2c 90 3d 92 f1 57 bd c8 1d df bd 8d 81 e8 3d
       0.07039827 -0.052720614 -0.10894352 0.11352835
000040 7d 42 49 3a fc a9 25 3d 38 86 08 be 0a 56 5c bd
       0.0007677449 0.040445313 -0.1333245 -0.05379299
000050 2f 99 5a 3d 0c 25 36 bd 45 ae 52 bd 19 46 8d 3c
       0.053368744 -0.044468924 -0.051435728 0.01724534
000060 87 61 8b bd a9 61 35 3d 0c 01 a7 bd 7c 97 58 bd
       -0.06805711 0.04428259 -0.081544966 -0.05287884
000070 bf d8 98 3b 3d 43 83 bc 3b 61 62 3d b2 ef 1c 3d
       0.00466451 -0.016023273 0.055268507 0.03831453
000080 17 d3 b1 bd 88 09 07 be 57 e1 81 bd b7 b9 7d bc
       -0.0868284 -0.1318723 -0.06341808 -0.015486172
000090 0e c2 76 bd 25 29 6a 3d fa fb 96 bd 54 94 89 bd
       -0.06024366 0.057168145 -0.073722795 -0.067177445
0000a0 ae d8 17 3e bb 53 b8 bd c3 dc 1e bd e3 45 d2 bd
       0.1482875 -0.09000345 -0.038784754 -0.10267236
0000b0 05 c7 fc bb d7 cd 02 3d 40 bd fe bc 4a c8 e8 3c
       -0.0077141547 0.031934585 -0.0310961 0.028415818
0000c0 d7 cf 53 3d b1 73 ce bd 56 c1 df 3d 09 78 74 bd
       0.051711883 -0.1008066 0.10925548 -0.059684787
0000d0 a4 7e ec bd ae 92 26 3b f0 e8 75 bd 8e 14 16 3d
       -0.11547592 0.0025417018 -0.0600366 0.036640696
0000e0 09 c7 ea bb 42 3a 82 3d 8f 44 af 3d f0 87 28 3d
       -0.00716484 0.06358768 0.085579984 0.041145265
0000f0 a4 ce 26 bd af f8 03 be 33 7e ce 3d b7 f7 7e 3c
       -0.04072441 -0.12887834 0.10082664 0.0155619895
000100 2b 8d 1b be 90 6f 89 bd 30 fc 86 3c 8e 46 21 3e
       -0.1519057 -0.06710732 0.016477674 0.1574957
000110 f1 1f 5e bd 05 d1 84 3d b4 55 b1 3d 21 e4 2c bc
       -0.05422968 0.0648518 0.08658925 -0.010552437
000120 fb 6a 91 3d 94 45 b2 bc cd 8e aa bd 61 69 a2 bb
       0.07100483 -0.021761693 -0.08328018 -0.00495641
000130 d1 e9 1a 3e 83 b5 e1 bc e5 eb a8 3d 2d 71 94 3d
       0.15128256 -0.027552372 0.08248118 0.07248149
000140 f1 fb 30 bd 57 de 8d 3d d2 46 5f 3d 01 1b bc 3c
       -0.04320902 0.069271736 0.0545109 0.022962095
000150 cc ae d7 3b 14 a2 26 bd 9f eb a4 bd 06 cd 8f bd
       0.0065821167 -0.040681913 -0.08052754 -0.07021527
000160 f3 19 86 be 1a d9 a2 bd 47 bf e0 bc 1c 99 fe bc
       -0.26191673 -0.07951565 -0.027434958 -0.031078868
000170 33 70 14 be 7a 34 15 bc d9 94 88 bc f2 35 ee bd
       -0.14495926 -0.00910675 -0.016672539 -0.11631383
000180 09 95 b9 3c f6 0c 07 3e c0 b1 03 3e 96 0f 97 bc
       0.022654073 0.13188538 0.12860775 -0.01844005
000190 e4 18 ea 3b 41 33 21 be 1a 8b 03 3d 2e 75 b1 3d
       0.0071440805 -0.15742208 0.03211508 0.086649284
0001a0 fe b6 66 bd c0 d7 14 3c c5 07 0b bd 23 1c ca bd
       -0.05632686 0.009084642 -0.033942956 -0.09868648
0001b0 7e 8f 20 bd f4 79 fa bd e0 a1 8e 3d 40 ed 6c bc
       -0.039199345 -0.12230292 0.06964469 -0.014460862
0001c0 01 99 50 bd fc 35 62 bc 5b da 78 bc e3 ae d3 3d
       -0.050927166 -0.013806816 -0.015188779 0.10336091
0001d0 a5 14 a7 3d ca b8 8e 3d 07 87 7f 3d 99 c8 7f 3c
       0.081582345 0.069688395 0.06238463 0.015611791
0001e0 ec 2b a3 bc 4d 4b 7f bd fe 55 93 3d 3f 84 22 bd
       -0.019918405 -0.06232767 0.07194136 -0.0396769
0001f0 9f 9f d5 bc 23 f7 a7 bd df 88 2b bd e3 eb 58 bd
       -0.02607709 -0.082014345 -0.041878577 -0.052959334
000200 11 d8 96 bd 03 20 ba bd 39 9d 25 3e dc 42 8b 3d
       -0.0736543 -0.09088137 0.16173257 0.06799862
000210 56 89 94 bd 5f e7 f2 3d 5a 8e d5 3c 58 64 63 3d
       -0.07252757 0.11860537 0.026068855 0.055515617
000220 97 31 5a bc f1 76 67 3e 0b 1f 1a 3d 06 0a 95 bb
       -0.013317487 0.22603966 0.03762726 -0.004548314
000230 ec 91 91 3d 34 fb cd bd 12 1f b7 bd e2 75 ce 3c
       0.071079105 -0.10057679 -0.08941473 0.025202695
000240 d1 7d db 3b 05 fa d2 bd 63 24 7d bd d2 36 ff 3b
       0.006698348 -0.10301594 -0.06180228 0.0077885175
000250 0b bd 86 3d 37 15 5b 3e c2 c0 d4 bb 87 be 88 bd
       0.06579026 0.21394812 -0.006492705 -0.06676965
000260 e9 0d 0b bc cd a1 43 bd a7 91 8d 3c 26 bf 80 bc
       -0.008487203 -0.047761727 0.017281367 -0.015716147
000270 2a 3c 21 3c e2 33 30 3d e1 79 cb bd 5b fd 2f 3c
       0.009841004 0.04301823 -0.09935356 0.010741557
000280 fa 94 8e 3c 63 41 d2 3d a8 61 fa 3d 68 f1 80 bc
       0.017405022 0.10266378 0.12225658 -0.015740111
000290 72 e4 93 3d 83 02 66 bd c1 bd 39 3d d1 ca e0 bd
       0.07221307 -0.05615474 0.04534698 -0.10976184
0002a0 20 06 5b 3c ce 56 b3 3d 45 8e 04 bd e3 d7 ae 3d
       0.0133681595 0.08756791 -0.03236224 0.08537271
0002b0 57 b2 e6 bc 49 bd a8 3d 6a d9 4c 3d 95 54 09 3d
       -0.028161211 0.08239228 0.05001203 0.03352793
0002c0 16 45 d4 3c 98 6c b9 3d 88 27 7c 3d 2a 6f 6f 3c
       0.025911849 0.09053916 0.061561137 0.014613906
0002d0 e7 88 b0 bd 52 5b c4 bd f9 08 94 bc aa 96 68 3d
       -0.08619862 -0.095877305 -0.018070685 0.05678431
0002e0 f2 60 ec 3c 10 67 02 be 54 f7 9b 3c 36 9f 90 3d
       0.02885482 -0.12734628 0.019038834 0.07061617
0002f0 99 b1 bd bd 12 f5 1d ba 41 4f 30 bd ba e5 97 bd
       -0.0926239 -0.0006025593 -0.043044332 -0.07416864
000300 b6 bd a1 3c b1 6c 71 bc b0 84 be 3b bd d1 a0 3c
       0.019743782 -0.014735387 0.0058141574 0.019631261
000310 68 52 66 3d f4 e1 1a 3d 8c c7 6c 3c bc 70 13 3c
       0.056230932 0.037813142 0.014451873 0.008999046
000320 fe e6 bd bb a5 bb 6a 3d 90 a4 9d 3c 6c 9e a9 3d
       -0.0057953587 0.057307858 0.019243509 0.0828217
000330 bf 53 98 bd 5e 29 8d 3c a8 9d 21 ba 2a e7 ed 3c
       -0.07437848 0.01723164 -0.0006165155 0.029040892
000340 cd 3b bb bd 04 6a fb 3c 2e f8 7c 3c f9 e0 03 be
       -0.091422655 0.0306902 0.01544003 -0.12878789
000350 c7 66 94 3d 33 65 03 bc 96 08 9c bb 17 a1 b1 3d
       0.07246166 -0.008019733 -0.0047617657 0.086733036
000360 6e 24 f9 3b 9c dc 82 3d 7b ae 68 3d 4c 3e 0a 3e
       0.0076032197 0.06389734 0.056807023 0.13500327
000370 7e 1f 1e bd 3c ab 61 bc 6a 6c 0d 3e 20 c7 8d 3d
       -0.038604252 -0.013773736 0.13810888 0.06922746
000380 f2 42 61 3c 88 fe bb bb fc c6 00 bd 4a 3f 97 bc
       0.013748871 -0.0057371296 -0.031439766 -0.018462796
000390 f4 8e 58 bd 36 5c e6 bc aa 5b 1b bd 12 c5 44 3d
       -0.052870706 -0.028120141 -0.037929215 0.048039503
0003a0 d7 b6 86 3c 57 8f 9c bc b5 49 9c 3d a0 06 9a bc
       0.016444607 -0.019111319 0.07631246 -0.018801987
0003b0 3f 1b 7f bd 94 a6 9f bd 71 a1 c3 3c 7f 18 b1 bc
       -0.062281843 -0.07795444 0.023880692 -0.021618126
0003c0 69 d8 44 3d 01 d4 77 3c 27 3c 01 3d 6e 45 c9 3c
       0.048057947 0.015126229 0.031551506 0.02456924
0003d0 35 9a 1a 3d c1 3d f0 3c 05 b4 de bd 31 9a 73 3c
       0.03774472 0.029326322 -0.1087418 0.014868305
0003e0 e0 e1 7e bd dd d2 3f 3d 0b 5c 0e bd eb ac 52 3c
       -0.06222713 0.046831954 -0.034755748 0.01285861
0003f0 10 71 9e 3a a2 26 dd 39 70 a0 93 bd a6 d0 ca 3d
       0.0012088139 0.00042181188 -0.072083354 0.09903078

lstm.bias_ih_l1 f4 [512]
000000 51 00 2f 3d 92 37 74 bd f3 1b 86 3d ee c2 e3 3c
       0.04272491 -0.05962331 0.065483 0.02780291
000010 0b cd 9a bd 34 d4 a4 bc 72 9f 77 bd e4 87 c4 bd
       -0.0755864 -0.020120718 -0.060454793 -0.095962316
000020 cf 27 9e 3b d9 f0 8b 3d 33 61 ca bd c8 c4 61 3d
       0.004826523 0.068330474 -0.098818205 0.055119306
000030 2e a5 a3 bb 0a d1 93 3d eb 9a d0 3d 6b 2c 28 be
       -0.004994056 0.072176054 0.10185798 -0.16423194
000040 22 07 57 3c 86 cb ad 3b 4a 29 e9 3d 81 81 84 bd
       0.013124259 0.005303803 0.113848284 -0.064700134
000050 2f a4 61 3d 40 58 b7 bc 39 e9 dc 3c ef e8 37 bc
       0.05508822 -0.022380948 0.026966678 -0.011224969
000060 1a 6e 43 bd 91 31 40 3d 65 e7 18 bc ff 5a fb 3c
       -0.047712423 0.04692227 -0.0093325125 0.030683039
000070 19 bc 9c bd 51 7b 9b bc 52 3b 3e 3d ed d1 1d bd
       -0.07653064 -0.0189797 0.04644329 -0.03853028
000080 0d 5d ab bd f9 7f 54 3c 67 5e 32 bd 87 b1 65 3b
       -0.083673574 0.012969964 -0.04354706 0.0035048441
000090 e9 85 b9 bb 8a c3 98 3d 22 b7 13 be 9d cf a5 3c
       -0.0056617153 0.07459171 -0.14425328 0.0202406
0000a0 0e 40 1b 3c 1a 3a 18 3d 36 06 81 3d d3 59 9a 3d
       0.009475721 0.037164785 0.06300013 0.07536664
0000b0 2c a1 28 3c e2 7c 52 bd 11 b5 92 3b c7 a6 b9 3d
       0.010292333 -0.05138863 0.004477151 0.090650134
0000c0 37 a0 b8 bd e5 89 2d 3c d8 0c 59 bd ed 79 84 3c
       -0.090149336 0.010591959 -0.052990764 0.01617142
0000d0 b9 17 6c 3d 10 4a 34 3d ab d1 a0 bc 95 c5 d8 3d
       0.05763981 0.044015944 -0.019631227 0.10584561
0000e0 f4 2a f9 bb bd 72 a1 3d 2d 57 94 b7 26 97 d8 bd
       -0.0076039974 0.07883213 -1.768357e-05 -0.10575704
0000f0 d6 81 55 3d eb a0 21 bd 3e 38 cf bc e4 0f ff bc
       0.052125774 -0.039460104 -0.025295373 -0.031135507
000100 ae 2b db bd 76 12 72 3c 67 f3 b5 bd 0a 7c 92 bb
       -0.107016906 0.014774909 -0.08884316 -0.004470353
000110 60 2d 02 3d a1 2a e9 bc ed f3 42 bc 3b 70 c1 bd
       0.031781554 -0.02846271 -0.011898977 -0.094452344
000120 29 5e cd 3d 1c 19 40 3d b2 e4 b6 bd 9b 8f af bc
       0.10027725 0.046898946 -0.08930339 -0.021430781
000130 00 32 bd bc 09 a4 af bd 7c 37 b3 bd cd f6 58 bd
       -0.02309513 -0.08576209 -0.08750817 -0.052969743
000140 96 83 75 bd 4f 33 c2 bb 5c 90 43 bc 0d 39 b9 3d
       -0.059939943 -0.0059265266 -0.011936273 0.09044085
000150 19 82 a4 bd 94 ca 77 3d 02 ac 1b bc 15 c9 03 be
       -0.08032627 0.060495928 -0.009501459 -0.12869675
000160 fa 54 53 bb b4 f3 f5 3b b0 f4 95 3d 11 02 97 bd
       -0.0032246695 0.0075058583 0.07322061 -0.07373441
000170 29 27 42 bd 85 eb 3e bd 17 65 e9 3c 11 58 60 bd
       -0.047400627 -0.046611328 0.028490586 -0.054771487
000180 f5 25 f0 bd ec cf 00 3e 09 cd 82 bd 9c 00 cf bb
       -0.1172599 0.12579316 -0.063867636 -0.0063172113
000190 6c 67 11 3d 08 3c cd bd 26 47 b6 bd 37 15 97 bb
       0.03549902 -0.10021216 -0.08900289 -0.0046106833
0001a0 1a 3d a4 bd d5 0c 27 bd 28 3f a1 bd 89 55 05 be
       -0.08019467 -0.040783722 -0.07873374 -0.1302091
0001b0 26 9e c4 bc 32 c6 25 bd f1 cd 62 3c 86 16 22 bd
       -0.024001192 -0.040472217 0.013843046 -0.03957226
0001c0 70 86 6d 3c fb 2f b2 bd 8a 9f bc 3a 4b 48 90 bc
       0.014497384 -0.08700558 0.0014390808 -0.017612597
0001d0 4c 0c 24 bd 3c b7 09 be f3 00 1e bc d6 27 27 bd
       -0.04005079 -0.13448805 -0.009643781 -0.040809475
0001e0 55 a6 98 3d 0a d4 3d 3d 86 cc 02 3e ba 75 b7 bd
       0.074536 0.046344794 0.12773332 -0.089580014
0001f0 7b aa 85 bd 68 ed a8 3d 68 35 99 bd 76 15 4f 3d
       -0.06526657 0.08248407 -0.074808896 0.050557576
000200 28 74 94 3d b0 12 ba bd 7d f8 e4 3b a8 44 6f 3e
       0.072487175 -0.090855956 0.00698763 0.23366034
000210 57 b2 03 3e 92 0f 17 bc e9 d5 13 3e d5 2c b4 3d
       0.12861 -0.009220021 0.14437069 0.087976135
000220 0e 50 ac 3d ad e8 28 3e f9 11 ad 3c f8 0d f7 3c
       0.08413707 0.16495009 0.021126734 0.030158028
000230 5e 5d da bc a1 c4 06 3e 61 50 b8 3d b1 66 1e 3d
       -0.02665585 0.13160945 0.08999706 0.038672153
000240 4f 5b e9 bc c8 f3 bf bc 32 28 e7 3d da 06 d0 bd
       -0.028485922 -0.023431674 0.112869635 -0.10157557
000250 4f e7 42 bd b4 a2 ae 3d 79 4c 96 bb 98 ec 9a bc
       -0.047583874 0.08527127 -0.004586753 -0.018911645
000260 77 a8 c4 3d ae d9 c1 3d ea 3d 7b bd 74 e0 5f 3d
       0.096024446 0.09465347 -0.061338343 0.054657415
000270 bd 94 29 3d 13 7a 3e 3d 34 cf c5 3c ee 30 e5 3c
       0.041401614 0.046503138 0.024146654 0.027977433
000280 30 61 27 bd 0a d8 35 3a 91 86 fc 3c 0c be 90 3d
       -0.04086417 0.00069367944 0.030825885 0.070674986
000290 77 b7 28 3e f0 aa 1c bd 20 8c 6c bc d1 c0 39 3d
       0.16476236 -0.038248956 -0.014437705 0.0453499
0002a0 af 05 f9 bc 6b 9d 65 3d 4d fc 89 3d ee 67 78 bd
       -0.030398218 0.05605833 0.06737576 -0.06064599
0002b0 cc 13 6a 3d 61 31 87 3d 5f 8a de 3c 06 b4 0b 3d
       0.057147786 0.06601215 0.02716559 0.03410723
0002c0 c2 34 2c bd 19 79 9e 3b 77 5a 0b 3e 80 6a 0d bd
       -0.0420425 0.0048362133 0.13608728 -0.034525394
0002d0 c4 8c b8 3c d0 88 fe 3d a7 cf 2c bc 4a 94 b7 3d
       0.02252806 0.12428439 -0.010547555 0.08963831
0002e0 bc 0d 5c 3c de 84 db bc b1 4d 38 3e 73 37 8a bd
       0.013431009 -0.026796754 0.17998387 -0.06748857
0002f0 97 3c 6b 3e 40 1a d4 3d cc b4 3c 3e 4c 49 25 bd
       0.22972332 0.10356569 0.18428344 -0.040353104
000300 b9 2c 92 3d c5 56 99 3d 39 5e f1 bc ee 0d f9 bc
       0.071374364 0.07487253 -0.029463874 -0.03040215
000310 97 65 ef bc ab df 6e 3d ba b3 cc 3d 4e 20 b4 3d
       -0.029223246 0.058318775 0.099952176 0.08795224
000320 6e 0d 9d 3d 92 e6 c6 3b 95 71 4b bd 58 1b a8 3d
       0.07668577 0.0060699666 -0.049668867 0.082083404
000330 51 c0 99 bc 84 4d 4b 3e 63 e9 ce 3d 06 0c 59 3d
       -0.018768461 0.19853789 0.10103109 0.052989982
000340 a9 34 ea bb ca 17 c8 3d d4 34 82 bd 0a 54 0b 3e
       -0.007147391 0.097701624 -0.063577324 0.13606277
000350 b6 a8 86 3d 94 f2 9e 3d f8 fb 90 3d 77 27 13 3b
       0.06575148 0.07761112 0.07079309 0.0022453943
000360 e9 09 ee 3d d4 53 0f 3d 10 e4 4f bc 17 84 bf 3d
       0.11622984 0.034992054 -0.012688652 0.09351366
000370 7a d9 44 bd dd 06 f3 3c 61 85 a1 3d 23 45 ad 3c
       -0.048058964 0.029666359 0.07886768 0.021151131
000380 a7 8c 55 bd 8a df 1d 3d 9c 3f aa 3d 75 5a 8d 3d
       -0.05213609 0.03854326 0.08312914 0.06902019
000390 4d 09 95 bd 02 86 51 3d 96 f2 82 ba 47 b5 08 3e
       -0.072771646 0.05115319 -0.0009990509 0.13350402
0003a0 aa 69 50 3d a4 c8 8f 3c cf 87 c6 3d b6 46 9d 3d
       0.05088202 0.017551728 0.09693872 0.07679503
0003b0 b6 f8 96 3d 4d ae 4f bd 59 74 8b bb b4 d2 13 bc
       0.073716566 -0.050703336 -0.004255813 -0.0090224035
0003c0 37 5b 17 bd e8 e1 57 3d 20 34 b0 3d 56 58 7c 3d
       -0.036952224 0.052705675 0.08603692 0.06160768
0003d0 8e 39 ab bc 58 48 8b 3d 10 d2 14 3d a5 6e b4 3c
       -0.020901468 0.06800908 0.036333144 0.022025416
0003e0 d8 3f a6 3c ea aa 16 3e e4 af 98 3c ed 4d 39 3c
       0.020294115 0.14713636 0.018638559 0.011310083
0003f0 f0 67 e1 3d d6 61 3d 3e d7 40 3b 3d 0a 8a 1d 3b
       0.11006153 0.18494353 0.045716133 0.0024038577
