output/run_11/best_model.pth (torch, 809897 bytes, 9 tensors)

lstm.weight_ih_l0 f4 [512, 6]
000000 f9 86 78 3d 01 04 d0 3d b0 34 3f bd a8 c4 9e 3d
       0.060675595 0.10157014 -0.046681106 0.07752353
000010 f0 4b 10 be 92 ed 3e 3e 07 9f 3c 3a 7d 75 07 3d
       -0.14091468 0.18645313 0.0007195328 0.03307103
000020 bd 73 97 3d 00 25 09 bd 6a ef 64 3e 0d 40 47 be
       0.07395122 -0.03348255 0.22356954 -0.19458027
000030 51 94 54 3d c5 87 53 3d 9c bf 8c 3d 35 b0 af 3c
       0.051899258 0.05164315 0.06872484 0.021446327
000040 47 47 1e 3e 2e e8 59 3d 50 f6 a7 bd 03 2d f8 3a
       0.15456878 0.05319994 -0.08201277 0.0018934313
000050 d4 24 ae bc 55 9e 3c 3d 3a 6d fc bd 41 1b bd 3e
       -0.021257795 0.046049435 -0.12325521 0.36934856
000060 35 3d c9 bd 6f 2f 07 bd 9f d8 72 bc 5d 91 0a be
       -0.098261274 -0.03300422 -0.014822154 -0.13532014
000070 60 08 2c be 48 f3 cf 3d cb 6f ff 3d 9c 5a b5 bd
       -0.1680007 0.10153824 0.12472495 -0.08855173
000080 5d 66 48 3d 18 0b 90 3d 56 3e 44 bd cc 0b 42 bc
       0.048925746 0.07033366 -0.04791101 -0.011843633
000090 7b cd 09 bd 42 6f e6 3b 65 f6 dc 3c dd b2 89 bc
       -0.033643227 0.007032306 0.026972959 -0.016808921
0000a0 69 6a 8e bd 63 51 1f 3e dd d8 6a 3c d1 86 69 3d
       -0.0695389 0.1555839 0.014333931 0.057013337
0000b0 b4 b0 75 3d 27 e6 33 bd 23 f2 8d bd 82 a0 b4 3e
       0.05998297 -0.043920662 -0.069309495 0.35278708
0000c0 f8 8e bc 3d 34 f0 b3 3c 9a 32 98 bd 5f 35 d2 bc
       0.092069566 0.021965124 -0.074315265 -0.025660215
0000d0 49 aa 83 bd b0 9a ea bc bc 27 1a 3d e9 49 4f 3d
       -0.06428964 -0.028638214 0.03763555 0.050607596
0000e0 47 4c ec 3c 86 9a 46 3c 53 6c 52 3e 9b 33 57 be
       0.028844966 0.012121802 0.20549135 -0.2101578
0000f0 b4 ac 5f 3d e2 b4 35 bd ba 5f 97 3c a3 ac 85 bc
       0.054608062 -0.044361956 0.018478263 -0.016317671
000100 3c f8 41 3e 42 a0 8c be 98 8f 3f 3d cd 04 78 bd
       0.1894235 -0.27466017 0.0467678 -0.060551453
000110 61 ca 5a bd ed dc 8f 3d 46 35 a2 3d 67 fa 8e 3d
       -0.05341566 0.0702456 0.07920317 0.06981354
000120 1d d4 84 3d 77 29 b0 bd c7 15 d7 bd aa 17 7c bd
       0.0648577 -0.08601659 -0.105022006 -0.061546005
000130 10 3b 08 be 1e 36 80 3e cb 34 c2 bc a3 4b be 3c
       -0.1330378 0.25041288 -0.023706814 0.023229426
000140 19 a6 18 bb f2 2b 8e bd 1c 76 15 3c 26 0d 78 3d
       -0.0023292361 -0.06941976 0.009122398 0.060559414
000150 23 4e 57 3d ff ec 32 bd af cc 29 3d dd 65 06 bd
       0.05256475 -0.04368305 0.041454967 -0.03281199
000160 a7 74 dc bd 2e 7b 85 3e ab 15 cd 3d 64 a6 47 3d
       -0.10764437 0.2607054 0.100138985 0.048742667
000170 39 40 5e 3d 4c 81 17 bd 1c bb ff bd 51 76 1f be
       0.054260466 -0.03698854 -0.1248686 -0.15572478
000180 5f 3b 5e 3d 7d f6 e5 bc 54 82 4b bd 82 5e 08 be
       0.05425584 -0.028071636 -0.049684837 -0.13317302
000190 48 63 60 3d 34 96 09 3e 23 dd 8a 3d 36 ee c0 bd
       0.054782182 0.13436204 0.0678046 -0.09420435
0001a0 c6 31 47 3c 24 39 91 bd b4 00 2c bb e5 1a 96 bd
       0.012157863 -0.07090977 -0.0026245536 -0.073293485
0001b0 45 b3 9a bd ce 74 6e bd db 76 a7 3d e5 1b 8c 3d
       -0.07553724 -0.058216862 0.08176967 0.06841258
0001c0 81 44 3e 3e 3f bf 8d be ad 3b d2 bd 2a 28 7d 3b
       0.1858082 -0.27684972 -0.102652885 0.0038628676
0001d0 1e 92 a2 3d 53 f1 9e bd 64 9a 04 b9 cd db 2d be
       0.07938026 -0.07760873 -0.00012646016 -0.16978379
0001e0 ee f2 5e 3c 69 36 91 bc ef cd fa bb 76 76 9c bd
       0.013607724 -0.01772614 -0.0076539437 -0.07639782
0001f0 86 02 f9 bd a6 ef 66 be 1a d9 b0 bc c9 50 c5 bd
       -0.121586844 -0.22552356 -0.021587897 -0.09634549
000200 f8 a1 88 3d ca fb 30 3b 22 81 a4 3e b1 c5 42 be
       0.06671518 0.0027005547 0.3212977 -0.19020726
000210 6b fd e0 bd be 1c 84 3d bf f8 16 bd 78 32 c8 3c
       -0.10985836 0.06450795 -0.036858317 0.024438128
000220 9e b1 d5 bb b1 35 0a be 38 1a 6d bd 9c 46 b5 3c
       -0.0065214178 -0.13497044 -0.057886332 0.022128396
000230 25 7f 1a 3d 25 6a db bd 31 ff d6 3d cf 6b 17 3d
       0.03771891 -0.10713605 0.10497893 0.03696805
000240 10 5c b4 bc d5 13 b1 bb 3b d0 5b 3d 19 55 a0 3d
       -0.022016555 -0.0054039755 0.05366538 0.07828731
000250 6f 38 6f bd f3 fd 43 3e db a3 db bc 4b f0 70 bc
       -0.05840343 0.19139843 -0.02681153 -0.014705728
000260 5b 9a 9c bc 08 e2 77 bc 78 ff 99 3c 65 27 11 3d
       -0.019116571 -0.015129574 0.018798575 0.03543796
000270 2f 14 e1 3d 76 84 0e 3d f7 74 d7 3c a5 7a bb bc
       0.10990178 0.034794293 0.02630089 -0.02288563
000280 15 1f 51 3e 6a 29 5b be b4 79 4f 3d d0 48 51 bd
       0.20422013 -0.21402517 0.050653175 -0.05109483
000290 51 99 01 3c da f3 f9 bc 4b 16 d5 3d 09 7e 16 be
       0.007910089 -0.030511785 0.10404643 -0.14696516
0002a0 a8 59 cc 3c d1 9a ad 3c 2d 73 81 bd 4e 51 5c bd
       0.024945095 0.021191986 -0.06320796 -0.053788476
0002b0 2a 2d f2 bb 06 1b 3c 3d 23 34 c5 3c b9 62 bf bd
       -0.007390638 0.04592421 0.024072712 -0.09345002
0002c0 08 eb 0b bd 3c 3d 72 3c a7 64 20 bd f5 93 f3 3c
       -0.03415969 0.014785107 -0.03915849 0.029733637
0002d0 f7 7e 8a 3d 60 6f 71 3d aa c4 1a bb 70 34 59 3b
       0.06762498 0.058944106 -0.0023615756 0.0033142827
0002e0 b3 ba dc 3d 8b 21 d3 bd f1 4a cb 3a 30 e6 b6 3d
       0.107777975 -0.10309132 0.0015510005 0.089306235
0002f0 9f d1 e3 bc 78 6e b2 3c e0 ff 8b 3b 55 fe 6e bd
       -0.027809916 0.021781191 0.004272446 -0.05834802
000300 ff 0c e8 3d c0 2a 73 3e a5 78 99 bc 60 dc 02 be
       0.11330604 0.23746777 -0.018734286 -0.12779379
000310 23 19 19 be c0 bb b7 3c c2 1e ce 3d 9a 9b 2f 3d
       -0.14950995 0.022428393 0.1006446 0.042873003
000320 06 3a 68 bd 61 fd d9 3b 04 d4 22 3e 1c ad 0a be
       -0.05669596 0.0066525196 0.1590119 -0.13542598
000330 9e 92 d6 bd 15 a4 74 bd 90 48 54 bd e2 9a 09 be
       -0.10477184 -0.059726793 -0.051827013 -0.1343799
000340 54 e0 b7 3b 84 63 e8 3d 12 97 2b 3d c3 47 b6 3d
       0.005611459 0.11347106 0.04189212 0.08900406
000350 6b ac d4 bd 4a 65 a7 bd 8e cf 21 3c 22 50 5b bc
       -0.103844486 -0.08173616 0.009876145 -0.013385804
000360 23 da 50 bd 2e 5d 22 3d 94 af ef 3c 9e f6 16 be
       -0.05098928 0.039639644 0.029258527 -0.14742514
000370 43 4a 07 be a1 24 6e 3e 3e a1 68 bd 9e d6 83 bd
       -0.13211922 0.2325616 -0.056794398 -0.06437419
000380 6e 16 b3 bd 40 15 89 3d a5 06 8e bd 1f 62 b2 3e
       -0.087445125 0.06693506 -0.06934861 0.34840485
000390 23 99 ce bc b9 aa 00 be 71 48 9a bd 05 91 44 3d
       -0.025219506 -0.12565126 -0.07533348 0.047989864
0003a0 9e 50 18 be 6c 7e 90 3e 2a 8e f7 3c c0 e2 58 3c
       -0.14874503 0.28221452 0.030219156 0.013237655
0003b0 28 fb 04 bc 5c 83 1c be 4b 57 5f be 54 53 16 3e
       -0.008116521 -0.15284485 -0.21810643 0.14680225
0003c0 bf 6d 72 3d 6f 43 5c bd 68 ab e6 bc c1 7f ad bd
       0.059186693 -0.053775247 -0.028157905 -0.08471633
0003d0 65 26 a1 bd 15 27 ea 3d e0 8f 5b bd 0c 03 2d 3d
       -0.07868651 0.114332356 -0.053604007 0.042239234
0003e0 dc 58 48 bb 40 5d 4d 3d ab 09 8d 3c 1e 64 62 3c
       -0.0030570542 0.05013776 0.017216524 0.013817815
0003f0 45 2d fe 3c 59 2f 34 bd b1 b1 da 3c a1 75 81 bd
       0.031027446 -0.043990467 0.026696058 -0.06321264

lstm.weight_hh_l0 f4 [512, 128]
000000 66 d8 1e bc b1 de 0f 3b 2c 9b 21 bd 9a 0b 84 bd
       -0.009695148 0.0021952803 -0.039454624 -0.06447525
000010 ff ff 2c bd 7a 0a cb 3c e7 0f 1e bd 9d 33 06 bd
       -0.042236324 0.024785269 -0.038589384 -0.032764066
000020 e0 fe 7f bb ad 2a be 3b ce d7 a6 bb a3 fb 37 bd
       -0.003906183 0.005803427 -0.005091644 -0.044917714
000030 f7 71 95 bd 76 9e 25 bd 70 7e 69 3c 19 f4 92 3d
       -0.07297128 -0.040434323 0.014251336 0.07175464
000040 b8 e5 a1 3c 6c 37 37 3d aa ba de 3c 36 2b 98 bc
       0.019762859 0.04473059 0.027188618 -0.018575292
000050 e0 86 65 bd 59 71 63 3d f1 16 72 3d dc 50 6e bc
       -0.05603683 0.05552802 0.05910391 -0.014545646
000060 f1 26 a3 bd 82 14 a8 3d 35 1e 94 bd 06 c7 7b 3d
       -0.07966412 0.082070366 -0.07232324 0.0614691
000070 88 1b b6 bc 61 ed 76 3d eb 97 bf bd fe 64 87 bc
       -0.022229925 0.060284976 -0.09355148 -0.016527649
000080 d2 37 98 3d 66 7f ae 3d 21 9b 6a 3b b7 d7 95 3d
       0.07432522 0.08520393 0.003579803 0.07316535
000090 bf 06 58 bd 92 25 8d bc 7b 25 9f bd 70 92 1d 3d
       -0.05274081 -0.017229829 -0.07770821 0.03846973
0000a0 ec 6f 82 3b 92 38 31 3d 70 8f ea bc 37 2f 59 bd
       0.0039806273 0.04326684 -0.02863285 -0.053023543
0000b0 9e de be bd a7 a4 15 3d a7 77 05 bd 12 3c 80 bd
       -0.093198046 0.036533978 -0.032584812 -0.062614575
0000c0 ea 56 21 bd 87 8b 5a 3c 45 e9 07 3c 74 c7 3c 3c
       -0.03938953 0.01333893 0.008295362 0.011522163
0000d0 7d 5c 9e 3d d7 fe 83 3a cf f1 2f bd 49 9a 55 bd
       0.077324845 0.0010070455 -0.042955216 -0.05214909
0000e0 10 45 bb 3c 06 9b c2 3d 83 f5 a2 3c 5c 68 cc 3d
       0.02286008 0.095022246 0.01989246 0.099808425
0000f0 07 0a 24 3d da 47 ae bd ed e6 fc 3b e1 43 47 bd
       0.040048625 -0.08509798 0.007717958 -0.04864872
000100 a8 9d 10 3d 8f fd 7b bd 3f cc 1a 3d 37 ad df bc
       0.035306603 -0.06152111 0.03779244 -0.027304275
000110 55 74 14 bd 98 7f 2c bb da 6d d3 bd 36 17 88 bd
       -0.036243755 -0.002632117 -0.10323687 -0.06645052
000120 20 a8 92 3c a8 c7 49 3d 9e b9 1f 3d 94 0a c4 bd
       0.017902434 0.049262673 0.038995378 -0.0957233
000130 d7 20 0a 3d e5 32 e2 bd 26 87 20 3c 45 ad 95 3d
       0.033722725 -0.110448636 0.009797847 0.07308439
000140 82 d6 83 bd 7a 29 a4 3d 6a b9 ee bc 15 f4 bb 3d
       -0.064373985 0.080157235 -0.029141147 0.09177414
000150 68 35 c0 3c 25 d1 a5 3d 37 f5 d7 3d 8c 0e 29 bc
       0.023462966 0.08096532 0.10544818 -0.01031841
000160 79 06 68 bd d0 06 8b 3d c0 d4 76 bd d1 54 5f 3d
       -0.056646798 0.06788409 -0.060261488 0.054524247
000170 cb 04 97 bd c5 26 9d 3d 64 84 62 bd 82 63 59 3d
       -0.07373961 0.0767341 -0.05530204 0.053073414
000180 e8 8f 1d 3d 2a 43 56 bd 27 a8 76 3d c4 01 9f 3d
       0.038467318 -0.052310146 0.060218956 0.07764009
000190 3f 69 ba 3d 19 8c ed bd e5 e8 7d 3c 0e 1b d0 bc
       0.09102105 -0.11598987 0.015497421 -0.025403526
0001a0 40 51 5c bc 92 97 c7 bd e7 c4 17 3d 4d 58 75 3c
       -0.013447106 -0.097457066 0.037053015 0.014974666
0001b0 16 5b 12 bc 07 c2 e2 bd b1 f3 51 3d d8 4d 1f bd
       -0.008932849 -0.11072164 0.051257793 -0.038892597
0001c0 a4 41 c3 3d 8f f6 15 3d a7 1e 27 3d b4 05 f1 bb
       0.09534004 0.03661209 0.040800717 -0.007355416
0001d0 44 53 12 bd 8e 92 a5 bc 21 65 3f bd 0b ff 3b 3d
       -0.03572394 -0.020211484 -0.046727303 0.045897525
0001e0 67 a8 d3 bc 83 36 4e 3d 0f 7c 39 3c 8c d6 44 3d
       -0.025837136 0.050344955 0.011321082 0.04805617
0001f0 0d 7a dd 3d f7 14 82 bd 58 bc e8 3d c2 e0 df 3c
       0.10814295 -0.06351655 0.11364049 0.027328853
000200 44 19 af bd d4 9a 2c 3d 30 b9 61 3c e0 ab d1 3d
       -0.08549741 0.042139843 0.013777062 0.10237861
000210 99 3d ce bd b4 cc 6a 3d c7 6c 02 3d c7 51 d6 3d
       -0.100703426 0.057324126 0.03184202 0.104648165
000220 51 cf 0d 3c 7f e8 20 bd d8 34 6a 3d 54 27 7b 3d
       0.008655385 -0.039284226 0.057179302 0.061316803
000230 25 bc 45 bd 1a df 17 bc 3f 91 60 3d ce 8d 12 3e
       -0.04827513 -0.0092695 0.054826017 0.14311907
000240 2f ed 86 3d ce dd d1 3d f2 c3 df bc 2c 88 f2 3c
       0.06588208 0.10247384 -0.027315114 0.029605947
000250 b8 39 f2 bc 40 67 05 3d 8f 05 2f 3c 55 02 54 bd
       -0.029568538 0.03256917 0.010682478 -0.051760036
000260 fe 5f 5a bc e5 02 81 bd 74 c9 ba bd e9 70 9b 3d
       -0.01332855 -0.0629938 -0.091204554 0.07589895
000270 72 ef 44 bd c7 2b 94 3d e9 98 62 bc e7 11 92 bc
       -0.048079915 0.07234912 -0.013830402 -0.017830802
000280 fb d8 6c 3c f3 0b 91 3d c7 5d 7d bc d6 27 33 3d
       0.014456029 0.07082357 -0.015464253 0.043739162
000290 40 72 20 3d 60 3d ad 3d e0 6a d2 bd 25 42 05 bd
       0.039171457 0.08458972 -0.10274291 -0.032533783
0002a0 7e 15 7b bd c8 90 8d bd 95 82 7d bd eb 57 3e 3c
       -0.061299793 -0.069123805 -0.06189211 0.011617641
0002b0 3a 24 d4 3d a1 55 d7 3c 7e 09 b7 bd 71 3e 80 bd
       0.10358472 0.026285948 -0.08937357 -0.0626191
0002c0 bb 4f 8d 3d 78 51 b8 3c 9e 6e 0a 3c 8b 7e d8 bc
       0.06899973 0.022499785 0.008449225 -0.026427528
0002d0 66 4f 34 bc f9 b3 fc 3c e7 5b 5a bd 72 dd 44 3d
       -0.011005258 0.030847536 -0.0533103 0.04806275
0002e0 6f b3 40 3d fd 7c 05 bd 39 24 8e 3c d1 87 7b 3c
       0.04704612 -0.0325899 0.017351257 0.015352205
0002f0 c2 74 42 3c aa 39 37 bd 3f 84 bd 3d d5 1f c4 bd
       0.011868658 -0.044732727 0.092537396 -0.09576384
000300 c8 43 54 bd d7 e1 83 bd 8c 9f 1c 3d 06 52 50 3c
       -0.051822454 -0.0643956 0.038238093 0.012714868
000310 d7 65 9a ba 25 03 8d 3d 1a c3 d2 bd 94 cf 11 bc
       -0.0011779618 0.068853654 -0.10291119 -0.008899588
000320 ff 3f 32 bd e0 46 d7 bc 36 49 c1 bd fd 53 a1 bd
       -0.043518063 -0.026278913 -0.09437792 -0.078773476
000330 73 18 3e bd a7 48 df 3c a4 60 33 bb d2 c6 8c 3d
       -0.046410035 0.027256323 -0.0027370835 0.068738595
000340 30 ee 25 bd 8b 7d f0 bc 98 6b 87 3c 18 08 19 3d
       -0.040510356 -0.029356739 0.016530797 0.037361234
000350 20 f2 8b bc c9 06 68 3d d4 27 4d 3d 18 c9 a0 3d
       -0.017083228 0.056647096 0.05008681 0.078508556
000360 52 a0 6a 3d 26 a9 ed 3c 92 51 93 bc 47 44 01 3c
       0.0572818 0.02901132 -0.017983232 0.007889814
000370 90 a2 d5 3b 27 4b 6c 3d 68 0c fb 3c 84 73 40 3d
       0.006519623 0.05768886 0.030645564 0.046985164
000380 84 51 94 bd 24 fe 08 3d 23 7a a0 bc e7 a4 54 bd
       -0.0724211 0.033445492 -0.01958949 -0.051915076
000390 07 8c 76 3c f0 94 64 bd 60 fb 8e 3d c7 f8 2e bd
       0.015048034 -0.0558061 0.0698154 -0.04271772
0003a0 6e 73 0e bd 56 5c f1 bc 26 d9 9a bd c9 e4 ca 3b
       -0.03477805 -0.029462975 -0.07560949 0.006191824
0003b0 3b aa 7a 3c 9f 98 23 bc 32 bc b7 3d d9 0b c6 bd
       0.015299375 -0.009985118 0.08971442 -0.096702285
0003c0 03 ff 97 3d 9a 3f 8c bc 11 95 c3 bb 58 37 e2 bc
       0.074216865 -0.017120171 -0.005968698 -0.02761428
0003d0 3e 6e 6c bc 29 e5 9d 3c 22 b9 a9 3c 28 e9 85 bd
       -0.014430581 0.019274311 0.020718161 -0.06538612
0003e0 68 9e 90 3d d3 22 2e 3d e1 e5 47 bd a8 8a 8d bc
       0.070614636 0.04251368 -0.048803214 -0.01727803
0003f0 b1 3a 91 bc c1 20 53 bd 29 ad 08 bd 89 ce 41 bd
       -0.017728182 -0.05154491 -0.033368263 -0.047316108

lstm.bias_ih_l0 f4 [512]
000000 3b ef 9e bd 86 5f 7e bd 0e 9c ab 3d 0e 31 c9 bc
       -0.07760473 -0.062102817 0.083793744 -0.024559524
000010 6a 21 d6 3b 1a 7b 7d 3d 4b df bf 3d f5 6e a7 3d
       0.006534745 0.061884977 0.09368762 0.0817546
000020 f3 ed 32 bd 45 fb 16 3c 91 5a 47 bc 48 67 de ba
       -0.043683957 0.009215181 -0.012167589 -0.0016968036
000030 32 6c 88 3d 7f f3 b8 3d 79 a8 b3 bd 03 0d bc 3d
       0.066612616 0.09030818 -0.08772368 0.09182169
000040 81 c0 81 3d 45 bc 6d bd d6 cb a3 bd e2 29 0d 3e
       0.06335545 -0.058040876 -0.07997863 0.13785508
000050 11 69 f3 bc b9 00 9f bd f8 ee c0 3c 74 f4 15 3c
       -0.029713186 -0.0776381 0.02355145 0.00915252
000060 44 2f 75 3d f9 a5 93 bd 15 06 a0 3d cc 4f 6e bd
       0.05985953 -0.07209391 0.0781366 -0.05818157
000070 61 81 88 bd b0 12 81 3d 42 38 ba bd b4 6c 96 bd
       -0.06665302 0.063023925 -0.090927616 -0.07344952
000080 d5 d0 bf bc 2e ed 02 3d f4 0e 00 bd cb 98 f5 bc
       -0.023415009 0.031964473 -0.03126426 -0.029980084
000090 32 f1 b5 bd 47 46 7a 3d c9 d6 42 bc 52 ab ad 3b
       -0.08883895 0.061102178 -0.011892029 0.005299964
0000a0 fe 18 2e 3d 47 78 8f 3d 1f ce fe 3d 46 3b 33 3d
       0.042504303 0.07005363 0.12441658 0.0437577
0000b0 ff 8e a5 ba 2d 28 88 bd 2b bb 70 3d 72 e5 2c bd
       -0.0012631117 -0.06648288 0.058772247 -0.042211004
0000c0 86 24 0d 3d 94 9c ac 3d c1 0c 92 bd 77 21 68 bd
       0.03445866 0.084283024 -0.07131339 -0.05667254
0000d0 c1 47 54 bd 66 00 00 bd 63 06 4c bc 66 76 ba bd
       -0.051826242 -0.03125038 -0.012452695 -0.09104614
0000e0 81 a5 51 bd ae b0 95 bb f5 29 1a bd 26 d4 63 bb
       -0.051183227 -0.004568181 -0.03763767 -0.0034763901
0000f0 be 87 4c 3d 1b f7 5c 3d 2d 20 b7 bd b3 db 89 3d
       0.04993414 0.053946596 -0.08941684 0.067313574
000100 59 73 ea 3c 2e 00 4f 3c ec b8 6f 3d 29 a2 92 3d
       0.028619455 0.01263432 0.058525965 0.07159836
000110 5f 19 2a bd d2 16 05 3e 50 ed ac 3b fe 9e e8 3c
       -0.041528102 0.12996987 0.0052773133 0.028396126
000120 e4 10 14 3c 8f 76 10 bd 93 93 5f bd f2 e9 a7 bd
       0.00903723 -0.035269316 -0.054584097 -0.081989184
000130 32 61 b0 3d 89 cd 86 3d d5 96 f2 bc 99 da 9c 3c
       0.086122885 0.065821715 -0.029612938 0.019147204
000140 c4 50 8b bb 31 92 40 3c 29 da 76 bc a9 42 5b 3d
       -0.0042515714 0.011753605 -0.015066662 0.05353037
000150 f0 a2 ff bb 46 a2 3a 3d 12 46 b7 3d 9c cb 7a bd
       -0.007801406 0.045564912 0.08948912 -0.061229333
000160 3f 27 d0 3b 14 b9 0e bd 90 e1 b1 3c ec c7 a5 3d
       0.0063523347 -0.034844473 0.021714002 0.08094773
000170 d8 78 d0 3d 84 92 5b bb 1b c3 11 3d eb 55 51 bd
       0.10179299 -0.0033504078 0.035586458 -0.05110733
000180 23 e1 c1 bd 4b c7 cf bd 9d 84 3e 3b ac 92 cf bd
       -0.094667695 -0.10145434 0.0029070743 -0.10135397
000190 3b 6d 33 3c 93 2d 08 3d 78 20 e5 bc 50 74 a0 3d
       0.010951336 0.033246588 -0.027969584 0.07834685
0001a0 a1 e1 80 3d 0a 32 fa bb 69 f4 33 3d 48 a2 35 3d
       0.06293035 -0.0076353597 0.04393426 0.044344217
0001b0 01 0f 0a 3d a1 a2 ae bd 4e b5 99 3c 0b 5b 8a bd
       0.033705715 -0.08527113 0.01876321 -0.06755646
0001c0 31 d1 d8 bc 43 50 a0 bd d4 72 6a bc 6e a4 24 3c
       -0.026466938 -0.07827809 -0.014309604 0.010048969
0001d0 4a c0 7b 3c c3 82 21 3c a0 b8 a6 3b 6d c4 91 bd
       0.0153656695 0.009857836 0.005087927 -0.07117543
0001e0 a4 b9 d5 3b 20 19 5d bc be 81 89 3d 82 64 97 3d
       0.006522374 -0.01349476 0.067141995 0.07392217
0001f0 ff 19 2d bc 17 f5 86 3c 0f 08 05 bd f6 0a 33 3d
       -0.01056528 0.01647429 -0.03247839 0.043711625
000200 88 4f 42 3d 8e 2d cc 3c eb 52 4a 3d 66 3a 4b 3c
       0.04743913 0.024924066 0.049395483 0.01240406
000210 1c 18 59 bd 56 8a df bc 97 b1 3e bd 75 da 9e 3d
       -0.053001508 -0.027287643 -0.04655608 0.07756511
000220 41 43 14 bd 40 2b 91 bd 8d 27 9b 3c 65 be 02 bd
       -0.03619695 -0.070883274 0.018939758 -0.031919856
000230 51 a1 02 bd ad b3 ff 3d 9f 49 11 3d 6e 60 a8 3d
       -0.031892125 0.12485442 0.0354706 0.082215175
000240 fb 54 2a bd df 6f c6 bb ce 3d 85 bd 8c c0 a9 3d
       -0.04158495 -0.0060558165 -0.06505929 0.082886785
000250 78 76 94 3d c6 66 7e bd 94 80 32 bd aa e8 9b 3d
       0.072491586 -0.06210973 -0.043579653 0.076127365
000260 df 48 13 bd ea 0a 01 3d ed 27 90 3d e8 0e fe 3c
       -0.035958167 0.03150455 0.07038865 0.031012967
000270 1d c1 8b bd 39 8c b6 3c 8d 97 22 3d d2 41 98 3d
       -0.06823943 0.02228366 0.03969531 0.07434429
000280 ca 53 89 3d ce d0 f3 bc 84 a0 77 3d 15 54 32 bd
       0.067054346 -0.029762652 0.060455814 -0.043537218
000290 e6 9a 94 3d 1c df 6e bd 63 39 9f 3d c8 09 7e 3d
       0.07256107 -0.058318242 0.077746175 0.062021047
0002a0 98 4d a4 bc 5f 0b d9 bb a7 2b 00 bd 69 20 4e bb
       -0.02005653 -0.00662367 -0.03129163 -0.0031452423
0002b0 a3 d4 71 bd e6 99 8b bc 09 63 92 bd 8d 11 8f ba
       -0.059040677 -0.017041158 -0.07147796 -0.0010915265
0002c0 7a a2 8b 3d 98 3e 59 3c 33 61 35 3a 5f bf 8d 3c
       0.06818099 0.013259552 0.0006919086 0.017303167
0002d0 f2 ec 48 3d 97 b3 aa bd 07 37 30 3d 88 da 19 bd
       0.049054094 -0.08335035 0.04302123 -0.037561923
0002e0 d6 88 1d bd bd da 8d bd 65 6e 8a 3d dd 2c 83 bd
       -0.038460575 -0.06926487 0.06759337 -0.06405041
0002f0 c0 d2 cd bd 1d 8b 33 3c 9f 9f 93 bd 45 45 31 3d
       -0.10049963 0.01095846 -0.0720818 0.04327895
000300 4e ea b8 bc 5b 58 a9 bb d8 61 d2 bc ef c6 57 3d
       -0.022572663 -0.0051680035 -0.025681421 0.052679952
000310 3e 71 c1 bc a1 33 82 3d 3f 22 4d 3d c7 dc 8b 3c
       -0.023613568 0.06357504 0.050081488 0.017073048
000320 0b 6a 44 3d 79 ae fa 3d 7b 7b 95 bc 6e cc 08 bd
       0.047952693 0.12240309 -0.018247357 -0.033398084
000330 fc a3 be 3d 9c d6 c1 3d 0b b9 92 39 37 ef b8 3c
       0.09308621 0.094647616 0.00027985158 0.022575004
000340 3d 01 59 bd 09 f7 ac 3d c4 48 31 3d bf a8 20 bd
       -0.052979697 0.08445556 0.043282285 -0.03922343
000350 7d 90 01 bc a9 1e 5c 3d 9b 52 8d bc 9f a2 05 bd
       -0.007907984 0.053740177 -0.017251303 -0.03262579
000360 45 ee 87 3b 1e 95 60 3d 95 ce 98 bd ba 01 8f bd
       0.004148277 0.05482971 -0.074612774 -0.06982751
000370 76 68 42 bc 2e 07 87 bd a3 df cc 3d 40 3f e8 3c
       -0.011865726 -0.06593166 0.10003593 0.028350472
000380 00 78 11 3c f4 7c 10 3c 28 85 34 bb 3d 7b 3c bd
       0.008878708 0.008818854 -0.0027545188 -0.046015967
000390 35 ab c5 3d 17 8c 85 bd d6 75 4d 3d 24 91 4f bd
       0.09651796 -0.06520861 0.050161205 -0.050675526
0003a0 a4 a4 cf bb e3 d2 9f bd 89 3a 1d 3d a1 2a 85 3d
       -0.0063367654 -0.07803895 0.0383859 0.065022714
0003b0 20 16 98 3d 77 e2 6a 3d 87 ba 39 3d 2c 3f 2e bd
       0.07426095 0.05734488 0.045343902 -0.042540714
0003c0 ac 83 d1 3d e6 01 87 3d 9a 8a c7 3c 2f 2d 10 3d
       0.102301925 0.06592159 0.024358083 0.03519934
0003d0 d4 2d c0 3b d6 9e 8b 3d f8 96 90 3c 75 33 0e 3d
       0.005864838 0.06817405 0.017650113 0.034717042
0003e0 a8 36 03 3d 46 6b 87 bd e8 00 90 3d 27 07 28 bd
       0.032034546 -0.06612258 0.07031423 -0.041022446
0003f0 b0 ab a6 bc 53 73 8c bd 64 d2 e4 bc 8f cd 92 3d
       -0.020345539 -0.06857934 -0.027932353 0.071681134

lstm.bias_hh_l0 f4 [512]
000000 79 1e ae bd f2 01 09 bb 62 61 bf 3c 67 52 6f bd
       -0.08501906 -0.00209057 0.023361865 -0.058428194
000010 4a 44 85 bd 2e c2 a1 bd cc 5a 7e bd 08 0e 8a bd
       -0.06507166 -0.07898365 -0.06209831 -0.067409575
000020 ff 4d 8a 3d bd 93 3e bd a7 eb 9a 3d 3a 52 98 bd
       0.06753158 -0.046527613 0.07564478 -0.074375585
000030 0d 8f 19 bd 5a 0e e2 3c 5c 1e 80 3d 58 76 3b 3d
       -0.03748994 0.027594734 0.062557906 0.04576716
000040 3d 65 91 bb cc bb ea bc 0e e8 19 3d 4b a0 95 b8
       -0.0044371174 -0.028654002 0.03757482 -7.1347305e-05
000050 60 07 8e 3c 1c 21 44 3d 46 f0 41 3c 71 6b 4f 3d
       0.017337501 0.047883138 0.011837071 0.050639573
000060 c3 27 64 bc 48 80 7c 3d d2 74 ac 3a 03 31 5e 3c
       -0.013925496 0.061645776 0.0013157374 0.01356149
000070 6b ae 03 bc 3b 8b 2c 3d fd 8c b0 bd 72 eb 5b 3d
       -0.00803719 0.042124968 -0.086206414 0.053691335
000080 cf 47 bc bd d9 3c 5d bc f1 51 69 3c 8f 8d d2 3b
       -0.09193384 -0.013503277 0.014240728 0.0064255665
000090 b7 67 61 bd 87 29 0e bd 00 b0 24 bd 23 0a c3 bd
       -0.05503055 -0.034707572 -0.04020691 -0.09523418
0000a0 78 82 b5 bd bf 77 47 3d 24 39 66 3d 06 c8 eb bc
       -0.088627756 0.048698183 0.056206837 -0.028781902
0000b0 a5 99 78 3c 88 f6 86 3c 48 ba a3 bd 1c 7e 10 bd
       0.01517335 0.016474977 -0.07994515 -0.035276517
0000c0 a0 30 5e 3b 5c d9 a0 bc 98 5e 47 3d cd 69 d5 bd
       0.0033903494 -0.019634895 0.048674196 -0.104205705
0000d0 18 69 4f 3d b8 f8 b9 3c 46 35 70 bd 8e 1c d1 bd
       0.050637335 0.022701606 -0.058644556 -0.102105245
0000e0 b5 ea cf 3c bc db a5 bd e2 2e bb 3d 1b b5 49 3c
       0.025380472 -0.08098552 0.091398016 0.012311245
0000f0 c3 62 bc bc 00 98 59 3d f7 97 dc bc 27 08 a7 3c
       -0.022996312 0.053123474 -0.026927931 0.02038963
000100 10 db 35 bd 11 ec ac bc 4e 84 aa 3d 31 0d a6 3d
       -0.044398367 -0.021108659 0.08326016 0.08107985
000110 6e a1 13 bd b2 7b b3 3c a9 a5 b3 3d ac bf b9 3d
       -0.036042623 0.021909568 0.087718315 0.09069762
000120 05 4c 15 bd 63 ce 07 3d 41 75 9c bd 5a 43 93 bd
       -0.03644945 0.03315581 -0.07639552 -0.07190581
000130 c4 89 9b 3d f1 95 48 bd 5e 7f 2d 3d dc 5d 84 3d
       0.07594636 -0.04897112 0.042357795 0.06463215
000140 91 c2 cd bc 48 d6 89 bc a7 ff 12 bd 43 5d 63 3c
       -0.02511719 -0.01682581 -0.03588834 0.013877216
000150 07 6d 18 bd 8d c5 c2 3d 3a 00 50 3d 0c a8 9e 3d
       -0.03721335 0.09510336 0.050781466 0.07746896
000160 95 54 b4 3d 0b 83 62 bb 15 90 ae bd 94 9f 4d bc
       0.08805195 -0.003456297 -0.08523575 -0.012550253
000170 6e 7f 2d bd b7 a7 45 bd c2 43 8f bd 75 ed 40 3c
       -0.042357855 -0.04825565 -0.06995346 0.011775364
000180 72 0b 9c bd 4c 75 4c bc 2e 2f 14 3d f2 5d 43 bd
       -0.076193705 -0.012479138 0.036177807 -0.047697015
000190 6a b3 04 3e dc e9 b1 3c 7b b6 db 3c c2 67 44 3d
       0.12959066 0.021717958 0.026820412 0.047950514
0001a0 69 c0 a3 3d 8c 2b 27 3d 1c da 67 bd 0a d4 11 bd
       0.07995684 0.040813014 -0.05660449 -0.035602607
0001b0 6e e6 b2 bc a1 b6 2a bd f8 c3 a1 bc e7 d8 77 bd
       -0.021838393 -0.041678075 -0.019746765 -0.06050959
0001c0 d1 4a c1 3d d8 db 44 bd 1b 3c 9c 3d f6 0e 0f 3d
       0.09438098 -0.04806122 0.07628652 0.034926377
0001d0 d3 79 12 3d 4c 0e 83 bd 53 ac 7a bd b9 f5 88 bd
       0.035760712 -0.06399211 -0.061199497 -0.06687493
0001e0 7d ae 23 3d b7 bc 92 3d 03 25 fc 3c 9b 92 00 3d
       0.039961327 0.07164901 0.030779367 0.031389814
0001f0 36 ff 08 3d 28 25 27 3d 69 bb 01 bd 19 19 ee 3c
       0.033446513 0.04080692 -0.03167287 0.029064702
000200 7a f8 3c bd 19 98 2e 3d aa 4e bb 3d bb 1d 2b 3d
       -0.046135403 0.04262552 0.09145863 0.0417764
000210 17 77 82 bc f3 d3 57 3d ca 05 a6 3d c2 ce 3c bb
       -0.015925927 0.052692365 0.08106573 -0.002880976
000220 54 c8 a8 3d c4 72 6d bd 23 b4 28 3d 08 b4 22 bb
       0.082413346 -0.057970777 0.041187417 -0.0024826545
000230 6a 42 cb bc fe 07 53 3c db ab 99 3d f7 23 53 bb
       -0.024811942 0.012880323 0.07503482 -0.0032217482
000240 d9 9d ad bd a1 49 8e bc 0f f6 1d bd 9e c9 f4 3d
       -0.08477373 -0.017369093 -0.038564738 0.11952518
000250 dd c7 af 3d ec f9 8d 3c 26 76 ca bc 8e 2f ba 3b
       0.08583043 0.017331086 -0.02471454 0.0056819385
000260 b4 9b f8 bb 4a d4 c7 bd ea 69 bc bc 38 19 33 3d
       -0.0075869206 -0.09757288 -0.022999723 0.043725222
000270 e7 e2 88 bc fa 88 3d bd 81 62 d5 bd 1c ad 9c bb
       -0.016709758 -0.04627321 -0.10419179 -0.0047813784
000280 39 58 b8 bc 6d 90 c2 bc f6 1a 8b bc f4 c9 54 3d
       -0.022503005 -0.023750508 -0.01698063 0.05195041
000290 f5 4f 37 3d 27 1f 12 bd 4e 1b 89 3d 71 50 6e 3d
       0.044753987 -0.03567424 0.06694661 0.058182184
0002a0 48 89 37 3c 86 0e 88 3d fc e2 31 3c b3 3a 98 3d
       0.011202164 0.06643395 0.01085734 0.07433071
0002b0 37 bf b3 bd 37 a8 a9 bd e0 fb 8d bd e3 07 a2 bd
       -0.08776706 -0.082840376 -0.06932807 -0.079116605
0002c0 70 92 e9 3b 6c 65 07 bd 16 cc a4 bd 09 dd 64 3c
       0.0071280524 -0.033055708 -0.08046739 0.0139687145
0002d0 5c 9e 19 3d e7 07 48 3c e8 51 82 3c 74 23 67 bc
       0.03750454 0.012208915 0.015908197 -0.014107574
0002e0 30 64 d1 3c e2 6e 81 bd 6a 8c a2 3c 09 e0 54 bc
       0.025560468 -0.06319977 0.019842345 -0.012992867
0002f0 a2 e3 90 bd 59 78 82 bc 28 b4 4d 3d 00 87 ac bc
       -0.070746675 -0.015926527 0.05022064 -0.021060467
000300 15 53 4d 3d c5 b6 1e 3d 89 f5 8b bc 6e ac 8d bd
       0.05012806 0.03874852 -0.017084854 -0.06917654
000310 19 f2 7a 3d 16 68 1e 3e 0b bb 14 bd 2a a1 87 3c
       0.06126604 0.15469393 -0.03631119 0.016556341
000320 37 f9 74 bc a7 39 16 3b a0 e0 40 bd e8 ad 17 bd
       -0.014951996 0.0022922547 -0.04708922 -0.037031084
000330 85 08 1a 3e 05 ec b8 3d 11 e0 10 bc f9 6c eb 3c
       0.15042312 0.09029392 -0.008842484 0.028738486
000340 61 d6 8d bc 17 35 b7 3d e3 06 df 3d f9 f2 1f 3d
       -0.017314138 0.08945673 0.108899854 0.039050076
000350 5d 3e 92 3d 63 c8 13 bd fb 27 c0 3c b2 1e 6c bd
       0.07140801 -0.036079776 0.023456564 -0.05764646
000360 31 50 51 bd 27 a2 cf 3c e0 e6 db 3c b3 92 8d 3d
       -0.051101867 0.025345875 0.026843488 0.06912746
000370 28 78 6d bc 31 a7 96 3c d8 cc 6d bc d2 ed 77 3d
       -0.0144939795 0.01839027 -0.014514171 0.060529537
000380 73 fa 44 3d 2b 99 5b 3c 1e e5 83 bd bb 43 1f 3d
       0.04809041 0.013403217 -0.06440185 0.038882952
000390 9d ae b2 3d 8a 65 3b 3d 2b fa 66 3d 5d 89 0e 3d
       0.08724711 0.045751132 0.056390923 0.03479897
0003a0 a8 b8 b2 3d 1a 8c 4b 3d 23 5b aa 3d a7 59 0a bd
       0.08726627 0.049694158 0.08318164 -0.033776905
0003b0 38 2f ac 3d 0e 94 a1 3d 14 ff 06 bd 4a c3 b4 3b
       0.08407444 0.07889567 -0.032958105 0.0055164443
0003c0 21 ef 15 bd 90 56 a2 3d 69 21 9e 3c dc 18 34 3c
       -0.036605004 0.07926667 0.01930304 0.010992255
0003d0 7b 55 5c bc 01 b2 c8 3d a9 f3 3c bc 13 b4 4c bd
       -0.0134481145 0.097995766 -0.0115327025 -0.04997642
0003e0 92 09 02 bd 22 11 ef 3c 4d 17 9f bb ae 60 fb 3c
       -0.03174741 0.029182974 -0.0048550726 0.030685749
0003f0 88 6d a7 bd 2e ca 0a 3d 8e 65 52 bc 75 33 ef 3c
       -0.08175188 0.03388422 -0.012841595 0.029199341

lstm.weight_ih_l1 f4 [512, 128]
000000 33 7d bb bd 48 c1 d2 3d fc f7 76 3b 31 65 d1 bd
       -0.09154739 0.10290772 0.0037684431 -0.10224379
000010 cd 00 8c 3c 4a 8c 04 bc c0 00 93 bc ca b1 74 bd
       0.017090226 -0.008090088 -0.017944694 -0.059739865
000020 b2 a0 5c bd 79 04 c5 bd e4 6f 85 bd 6f b5 1a 3d
       -0.05386419 -0.09619994 -0.06515482 0.037770685
000030 5c 68 d8 3d 52 3e af 3d a7 b2 91 3d 42 cf 8e bd
       0.1056678 0.085568085 0.07114153 -0.06973125
000040 74 b9 f7 bb 99 11 d1 bd 97 3a 81 3c e3 57 48 bc
       -0.0075599495 -0.102084346 0.015775008 -0.012227985
000050 bd ae a8 3c 3a c1 43 3d ee f5 4d 3d 5a 42 fd bb
       0.020591134 0.047791697 0.050283365 -0.007728857
000060 9a f1 2a bc 08 65 1c 3d d6 4b 34 bc 7f 72 08 3d
       -0.010433579 0.03818229 -0.011004409 0.033312317
000070 9e c6 81 bd 13 73 6c 3d f7 31 84 3d 87 a4 87 3c
       -0.06336711 0.05772693 0.064548425 0.016557945
000080 bb ca df 3d fa e6 63 3d cc 1a 36 3c 1d 51 7f bd
       0.1092734 0.0556402 0.011114787 -0.062333215
000090 6b 3d f9 bb b3 96 4e bd 4a a1 f5 3d b0 84 39 bd
       -0.0076061985 -0.050436687 0.11993654 -0.045292556
0000a0 e6 3f 03 be e0 12 7c 39 a1 57 58 3c f9 0a d1 3d
       -0.12817344 0.00024039624 0.013204486 0.10207171
0000b0 32 86 7d 3d 39 4f 88 3c a4 0a de bd 31 68 cf bd
       0.061895557 0.016639339 -0.10841873 -0.10127295
0000c0 80 49 f8 3d a5 57 ba bc a2 05 82 3b 0e 90 58 bd
       0.12123394 -0.02274687 0.0039679566 -0.052871756
0000d0 e5 26 15 3e 71 8e 34 bd de 35 8d 3d 2b 2a 62 3d
       0.14565618 -0.044081155 0.0689504 0.055215996
0000e0 64 1b 8c bd 16 7e 40 bc ad fe 32 bd 8a 49 f5 bc
       -0.06841162 -0.011748811 -0.04369991 -0.029942293
0000f0 02 73 66 3d c2 02 78 bd 32 e1 f0 bd 64 b1 59 bd
       0.056262024 -0.060549505 -0.117617026 -0.05314769
000100 a8 4d b0 bc 5d 52 e9 3d 13 22 5a 3c 2f 82 d9 3d
       -0.021521404 0.11392663 0.013313788 0.10620534
000110 df f2 22 3c 50 32 f1 3c 8f 97 61 3d f6 7b 6a 3d
       0.0099456 0.029442936 0.05507618 0.057247125
000120 38 d0 ba 3d 41 d8 73 3d a2 18 fc 3c 6d 77 a4 bd
       0.09121746 0.059532408 0.030773465 -0.08030591
000130 f2 e5 a5 3c f3 33 ec 3c d8 d2 e2 bb 8d b2 04 3d
       0.020251248 0.028833365 -0.006922107 0.03239684
000140 75 ff 9b 3d a4 31 15 3d aa ec 53 3d 50 a9 d1 bd
       0.07617084 0.036424294 0.051739372 -0.10237372
000150 25 22 aa 3b 13 26 73 bd 63 25 93 3b 54 dd db bd
       0.0051920586 -0.059362482 0.004490541 -0.10735574
000160 c6 26 56 3a 58 59 ac bb c1 8c 4b bd aa d0 d2 3b
       0.000816923 -0.005259674 -0.04969478 0.006433566
000170 e5 84 b9 3c df 7f ec 3d 2b 3d ad bd 7e 15 4b bd
       0.022646377 0.11547827 -0.084589325 -0.049581043
000180 29 eb 67 bd dd c5 9c 3d 37 fa 55 3d 4b b9 0f bd
       -0.05662075 0.07654927 0.052240577 -0.03508882
000190 62 e2 be bc 92 35 9e bd 45 44 8c bd 45 0e d3 3c
       -0.023301307 -0.077250615 -0.06848959 0.02576364
0001a0 95 05 ae bc 44 08 03 bd 3f ed ea bb 8d 51 a2 bd
       -0.021242896 -0.031990305 -0.007169395 -0.07925711
0001b0 d9 c5 3f bd d2 be 3f 3d 59 42 30 3d b7 12 6d 3d
       -0.04681954 0.04681284 0.043032024 0.057879176
0001c0 1e a2 56 bd 86 7f a4 3c 74 5b 1b 3d 83 46 1f bd
       -0.0524007 0.02008034 0.037929013 -0.038885605
0001d0 32 56 94 3d 6a 6e 39 3d c3 ca bd bd b7 42 60 3c
       0.07243003 0.045271315 -0.09267189 0.013687781
0001e0 eb 61 cf 3c f6 42 18 bd b7 af ba bc 1c b0 59 3d
       0.025315246 -0.037173234 -0.022788865 0.053146467
0001f0 df 3d fa 3a 9a a8 1a 3e 04 b3 ec 3c 13 a9 3a 3d
       0.0019091925 0.15103379 0.028893955 0.045571398
000200 7e d9 0e 3c 57 1f 8c 3d 36 e9 aa 3c d7 38 71 bd
       0.008718846 0.06841915 0.020863157 -0.058892097
000210 5b ca 3c bd 40 9d 5e 3d a4 6f bf 3d a1 21 4a ba
       -0.04609142 0.054349184 0.09347466 -0.00077106996
000220 bd 13 55 3d 8f e1 00 3e 8d c2 ec bd 1e 73 3d bd
       0.052020777 0.12586044 -0.11560545 -0.046252362
000230 3b 33 07 3d 06 15 1c 3d 28 78 d7 3d 70 50 a5 bc
       0.03300784 0.038105987 0.10520965 -0.020179957
000240 35 7e e3 bc c0 05 d8 3b 0c a0 bd 3d 2d 51 7b 3d
       -0.027770141 0.0065924823 0.09259042 0.061356712
000250 66 21 18 3d c8 c7 60 bd 85 fb 7c bc cd ad f0 3d
       0.037141226 -0.054878026 -0.015440826 0.117519
000260 21 a1 62 bd 86 3d 5b bc d3 69 93 bc 89 8d fe bc
       -0.055329446 -0.013381368 -0.017994797 -0.031073349
000270 fe 6a e6 3a 5d e8 ab bd 54 90 d6 3c 36 b3 8c bd
       0.0017579494 -0.08393929 0.026191868 -0.06870119
000280 70 a0 b0 3b 4f 8a 45 bd dd ba 9f bc ed 66 44 bb
       0.0053902194 -0.048227604 -0.019498283 -0.0029968575
000290 0a c4 86 3d 76 bc 3d 3d 9f c7 00 3e 06 4f c5 bc
       0.0658036 0.04632231 0.1257615 -0.024085533
0002a0 50 42 0f be d4 be 01 3c 9d 86 47 bc 36 ea 2e 3d
       -0.1399014 0.007919032 -0.01217809 0.04270383
0002b0 62 d0 cd 3d 8b e0 80 bd 97 1e 91 bc 84 8e 27 3d
       0.100495115 -0.06292828 -0.017714782 0.040907398
0002c0 1a 30 ae 3d a0 94 8a bd 2f 13 88 3d 14 80 db 3c
       0.085052684 -0.06766629 0.06644284 0.02679447
0002d0 f2 e5 31 3c 95 a8 77 bd ea 27 9b 3c 3a e9 9f ba
       0.010858046 -0.060463507 0.018939931 -0.0012200244
0002e0 5e 63 1a be 8c 0a bf 3b f0 ff 60 b9 94 cd a4 bd
       -0.15076968 0.0058301147 -0.00021457649 -0.080470234
0002f0 8e d6 5a 3d fb f2 3c 3b ee a7 d5 3c c0 af 88 bd
       0.05342727 0.002883135 0.026081052 -0.06674147
000300 69 8e 9a 3d 31 c0 88 3d df 25 86 bc 44 8c 81 3d
       0.07546694 0.066772826 -0.01637548 0.06325582
000310 0f a9 14 bd fc df 93 3b 20 69 55 bc bd 67 ff bb
       -0.03629404 0.004512785 -0.013025552 -0.007794349
000320 a7 c9 8e 39 bc 41 f8 bc 9e 15 b3 bc a7 11 6a 3c
       0.00027234593 -0.030304782 -0.021860894 0.014286435
000330 b1 28 79 bd 29 2e 97 3d 3f b7 b2 3c 49 39 e3 bd
       -0.060829822 0.07381851 0.021815894 -0.11094911
000340 b4 2d 79 3c 4d 38 71 3d f8 34 1d bd 84 bf cd 3c
       0.01520865 0.058891583 -0.038380593 0.025115736
000350 43 66 85 bb 6a bb 80 bd ac bb c6 bd 45 7e 19 bd
       -0.0040710284 -0.062857464 -0.09703764 -0.037473936
000360 b5 28 99 3d 2f dc bc bd 64 7a 92 bd da d9 15 bd
       0.074784674 -0.09221684 -0.071522504 -0.036584713
000370 40 d1 83 bc 63 8a d0 bc 6e 3a 1e bd fd 08 4e 3d
       -0.01609099 -0.025456613 -0.03862994 0.05030154
000380 a5 d2 03 3d 08 cf 2c 3d 2a d9 d2 3d bc 22 f0 bd
       0.03218331 0.042189628 0.10295327 -0.11725375
000390 0e 02 b5 bd f7 0a 5c 3d 6d c3 b1 bc 98 5c 14 bd
       -0.088382825 0.053721394 -0.021699632 -0.036221117
0003a0 3b 99 24 3d ff cc 69 bd 33 68 83 3d 1f 27 a3 bc
       0.040185194 -0.057080265 0.06416359 -0.019916115
0003b0 2c c4 4f bd 98 06 3e bd 74 4b b5 3d 94 c6 72 3d
       -0.050724193 -0.046393007 0.08852282 0.05927141
0003c0 bb 38 b4 3c bc bf de bd 23 23 38 bc e8 02 1f bd
       0.021999707 -0.10876414 -0.011238846 -0.03882113
0003d0 96 32 2a bd 27 e9 db bd a9 9c cc 3c cc c2 36 bd
       -0.04155215 -0.1073783 0.024977045 -0.044619367
0003e0 83 78 75 3d 39 14 aa 3c 3e 6c 8d bc 1c 0f 88 bc
       0.059929382 0.020761596 -0.017263528 -0.016608767
0003f0 5d 28 c5 bd 41 74 a4 bd 55 28 a3 bb 93 6e f9 bc
       -0.09626839 -0.08029986 -0.004979173 -0.030448234

lstm.weight_hh_l1 f4 [512, 128]
000000 ea fd ef bc 2b 99 b0 bd 56 b3 49 3d c0 b4 c9 3b
       -0.02929588 -0.086229645 0.049243294 0.0061555803
000010 fa 7f 58 3d fa ec c0 bd 5c c5 a1 3d 35 ce 87 3c
       0.052856423 -0.094202 0.078989714 0.01657782
000020 b8 8a 45 bd ea 84 1a 3e 8f ed 51 3d 95 0d 03 bd
       -0.048227996 0.15089765 0.051251944 -0.031995375
000030 84 8b 0f 3e 8b 16 4e bd 2f 9c 9e bd fc 94 bd 3d
       0.14018065 -0.050314467 -0.077446334 0.09256932
000040 62 1d 42 3d 4c d7 b9 3c 7a 24 9b bd 28 5a 20 bd
       0.047391303 0.02268567 -0.07575317 -0.03914848
000050 73 13 0e 3d f0 df 90 3d e4 06 c9 bd 47 40 bf bd
       0.034686517 0.07073963 -0.098157674 -0.09338432
000060 e8 ca ab bd d7 7a ae 3d 8f a8 91 bd 14 73 8e bd
       -0.08388311 0.085195236 -0.07112228 -0.06955543
000070 4c 06 90 3d a6 23 62 bc 30 aa a5 3d 7f 14 92 3d
       0.07032451 -0.013802445 0.08089101 0.071328156
000080 39 e1 f9 bd 86 bb 96 bd 13 a4 c4 bd 33 71 89 bd
       -0.12201161 -0.07359986 -0.09601607 -0.06711044
000090 64 19 1b be d4 6f 00 3d fc e2 57 bd 12 1b 4f bc
       -0.15146405 0.031356648 -0.052706704 -0.012640731
0000a0 df 98 2d 3d 83 f8 99 bc b0 1b 30 3d ab fc 3d bc
       0.042382117 -0.018795257 0.042995155 -0.011595885
0000b0 fc df 04 bd cd e4 d1 3d a2 0e 54 3d e7 9b d7 3b
       -0.03244017 0.102487184 0.051771767 0.0065798643
0000c0 30 8b 75 3d d7 74 b3 bc b5 dd 8c 3d 17 5c 02 be
       0.059947193 -0.0219063 0.06878225 -0.12730442
0000d0 5c cb e0 bd b7 d4 5a bd 69 24 61 bd 88 1e 30 3d
       -0.10976288 -0.053425517 -0.054966364 0.042997867
0000e0 b8 e8 8a bd 54 50 6c 3d 04 a3 b5 3d 03 82 98 3d
       -0.06782669 0.057693794 0.088689834 0.07446673
0000f0 a2 a9 16 bd f3 85 82 bd 39 a0 a8 3d 87 34 05 bc
       -0.03678287 -0.06373205 0.08233685 -0.008130199
000100 68 b9 37 bd fe 1d d9 bc 68 f0 29 bd c2 8a dc 3d
       -0.04485455 -0.02650356 -0.041489035 0.107686535
000110 82 11 b5 3c 08 be 94 3c 44 c0 26 3d 9f 9a 92 bc
       0.022103075 0.01815702 0.040710703 -0.017895995
000120 40 c7 66 3d b4 2c c2 bc fe c5 bb bd f8 94 6d bc
       0.056342363 -0.023702957 -0.091686234 -0.014500849
000130 cd ba 3f 3d f0 d0 05 3d 19 f0 a7 3d f4 82 84 3d
       0.046809006 0.03266996 0.08200092 0.0647029
000140 30 d5 75 bd 4e 3f af 3d dd aa 9a 3d 9d de 21 3d
       -0.060017765 0.08556996 0.07552121 0.03951894
000150 fc 03 a7 3d f1 46 5f bd 7a 68 d1 bd 44 97 62 bc
       0.08155057 -0.054511014 -0.102250054 -0.01383001
000160 17 6a ef bb c1 99 e9 b9 0d 9d 36 3d 1d 21 5b bb
       -0.007306348 -0.0004455578 0.04458337 -0.0033436485
000170 23 57 26 bc 95 83 70 bd 04 cf bc 3d 4f ae 7c bd
       -0.010152611 -0.058719236 0.092191726 -0.06168967
000180 45 ef 10 be 2c fd c4 3d 9e 9c 93 3c 0b 79 40 bc
       -0.14153774 0.09618601 0.018019017 -0.011747609
000190 95 a5 80 3d 28 34 09 bd ba b9 64 3d 06 01 e0 bc
       0.06281582 -0.033497006 0.055841185 -0.027344238
0001a0 fa 88 0d bd f7 a9 96 bd da e7 c6 bc e8 3a 3a bc
       -0.03455446 -0.07356637 -0.024280477 -0.011366583
0001b0 86 9b d0 3b 7f 0b b9 bd 0d df 9f 3c f3 a2 dc bd
       0.006366196 -0.09035396 0.019515539 -0.107732676
0001c0 d8 02 1e bd 70 ad 53 bd ce a9 bf bd ab 96 ca 3d
       -0.03857693 -0.051679075 -0.093585595 0.09892019
0001d0 69 0a c1 3d 28 7c 56 3d 41 b8 1a 3d d3 ef fa ba
       0.09425814 0.0523645 0.037773374 -0.001914496
0001e0 bf 29 00 bb 50 6c 7e bd 1a 86 44 3b 37 0c 3f bc
       -0.0019556133 -0.062115014 0.0029987157 -0.011660627
0001f0 c6 30 81 bc aa 6a 8b bc 2e 26 bd bd 50 f5 1b 3d
       -0.015770327 -0.017018635 -0.09235798 0.038075745
000200 e8 76 e4 bd e1 58 d8 bc 53 64 2a 3d e4 e5 5d 3d
       -0.11155492 -0.026409568 0.041599583 0.05417432
000210 fa 82 85 bd aa 2f f7 3d 6b 26 89 3d 30 29 0e bd
       -0.065191224 0.12069638 0.06696781 -0.03470725
000220 12 2a 07 bd 1c 0c 0e 3e d2 8a a0 3d 72 7c 4a bd
       -0.032999106 0.13871807 0.07838978 -0.049435087
000230 33 89 02 3d ac 53 ff bd df 98 a5 bd e0 a1 85 3d
       0.031869125 -0.12467131 -0.080857985 0.06525016
000240 8a 76 74 3d 5b 30 c4 bd 0a 21 ba bd 76 21 df 3c
       0.05968336 -0.095795356 -0.09088333 0.027237635
000250 97 da 86 3d 49 53 b7 3d 18 c3 5d bd 0d cb 0c be
       0.065846615 0.08951432 -0.054141134 -0.13749333
000260 38 87 81 3c c1 1d f7 bc 19 07 b5 3d dd 27 8f bd
       0.015811548 -0.030165555 0.088392444 -0.06990025
000270 42 2a 83 bd 10 87 a3 3d e4 12 3f 3c 16 a3 9b bd
       -0.064045444 0.079847455 0.011662219 -0.075994655
000280 cb 10 9a bd 3e e2 3a 3d 3e 21 c1 3d 5d 2c fd 3c
       -0.07522734 0.045625918 0.094301686 0.030904943
000290 d5 57 bd 3b 73 70 78 bd c5 a8 95 3d bd cb 86 bc
       0.0057782927 -0.060654115 0.07307581 -0.016454572
0002a0 b3 55 67 3d 6e bc 0c 3d 28 5e 9a 3c 0d 36 3a 3d
       0.056478214 0.034359388 0.018843725 0.045461703
0002b0 72 06 5c bd af ba ab 3d d3 d5 82 3c 44 5e 6e 3c
       -0.053717084 0.083852164 0.0159711 0.014548842
0002c0 c8 5e 26 3d 11 da 9c 3d 05 cd 41 3d f4 47 8a bd
       0.040617734 0.0765878 0.047314662 -0.06752005
0002d0 69 00 df bd ba bc 85 bd 40 8d 98 bd 2e 16 94 3d
       -0.1088875 -0.06530137 -0.07448816 0.07230793
0002e0 61 ec 90 3d 8a 46 8f bd 3d b4 13 3c a9 da c8 3d
       0.07076336 -0.06995876 0.00901514 0.09807331
0002f0 d0 fd 04 bb 47 b7 25 3c 99 a2 be bd 09 2b a1 3d
       -0.0020292886 0.0101144975 -0.09308357 0.078695364
000300 55 20 98 bd 1a cf 50 bd f9 0e 1d bd 41 06 12 3e
       -0.07428042 -0.050978757 -0.038344357 0.14260198
000310 86 69 fd 3d e8 d0 e9 3c 8e 77 3c 3d ef 26 28 bc
       0.123736426 0.028541997 0.046012454 -0.010263189
000320 e7 31 cd 3c c5 9a 0d 3d 3e 51 0b bc 9b 25 8d 3d
       0.02504821 0.034571428 -0.008503256 0.06891938
000330 74 75 de bd 30 2b da bd 28 b7 14 bb 81 16 fd 3c
       -0.10862246 -0.106527686 -0.0022692177 0.03089452
000340 08 5e 63 bd 75 c0 bd 3d e8 15 c8 bb b8 73 1a bd
       -0.055509597 0.09265224 -0.006106127 -0.037708014
000350 e0 4d 8e 3d e9 26 b1 bc 7e 5b 95 bc 21 9c 3d 3d
       0.06948447 -0.021625 -0.018232103 0.046291474
000360 61 b9 d2 bc c3 06 aa 3d 99 3c c7 3d 71 23 00 3e
       -0.025723161 0.08302071 0.09728355 0.1251352
000370 33 d6 f1 bd 6b f7 8f bd 22 eb fe 3d e1 6d 4e bc
       -0.118084334 -0.07029613 0.12447192 -0.012599439
000380 6d ab 93 3b e0 6b 94 3c be 0e 4e bd 18 83 4a bd
       0.0045065195 0.018117845 -0.050307028 -0.049441427
000390 4c 23 94 bd 53 b6 bb bd ad 8e 92 bb 28 15 b8 3d
       -0.07233295 -0.09165635 -0.0044725747 0.0898841
0003a0 18 a0 3b bd 39 8f 45 3a 07 27 85 3d b3 a7 52 bc
       -0.045806974 0.00075362955 0.065015845 -0.012857365
0003b0 77 08 a2 bd ed 39 c5 bd 4f 73 4a 3d 5b 5a a6 bc
       -0.07911771 -0.09630189 0.049426373 -0.020306757
0003c0 85 29 21 3c 0f 42 58 3c 11 30 d1 3c e2 60 0e 3d
       0.009836559 0.013199343 0.025535615 0.034760363
0003d0 8b da d5 3c 35 81 74 3d d1 76 18 bd 94 2f 4e 3c
       0.026105186 0.059693534 -0.037222687 0.012584586
0003e0 e1 ee 0b bd 19 06 ba bc 15 54 ee bd 62 cb 6b bd
       -0.03416336 -0.022707986 -0.11637131 -0.057567008
0003f0 6c 6d 0d be 1a de 0f ba 1a 8e 35 bd ab cd b7 3c
       -0.13811272 -0.0005488113 -0.04432497 0.022436937

lstm.bias_ih_l1 f4 [512]
000000 02 28 94 3d 51 4a 05 3c 40 7b 67 3d 2c 9d 03 3d
       0.072341934 0.008135394 0.056514025 0.032132313
000010 b5 85 8e bd 04 a3 2d bd c1 b2 34 bd d8 9e 35 bd
       -0.06959096 -0.042391792 -0.044115786 -0.04434094
000020 46 f5 0d bd 45 45 89 3d 91 92 84 bd 90 3a d8 3c
       -0.03465774 0.06702665 -0.06473268 0.026395112
000030 c8 78 0b 3d 27 ff 02 3d ac 67 9e 3d 91 86 44 bd
       0.034050733 0.031981613 0.077346176 -0.047979895
000040 24 c5 b3 3c 5f 4e 14 3d 44 c0 ba 3d d4 b5 1e bd
       0.02194459 0.036207553 0.09118703 -0.038747624
000050 1a a1 cf 3d 04 01 77 3d b0 80 2d 3d 51 78 85 3d
       0.101381496 0.060303703 0.042359054 0.06517089
000060 25 da df 3b 76 a8 42 3d 70 1c 2a 3d f9 ac e8 3d
       0.006831425 0.047523938 0.041531026 0.11361117
000070 68 0b 27 bd 3d 5d 9d 3d aa be 5d 3d ae 57 bd bc
       -0.040782362 0.076837994 0.05413691 -0.023113098
000080 53 ec 80 bd c6 af 5f 3d ce c7 a4 bd 77 76 84 3d
       -0.06295075 0.05461099 -0.08045922 0.06467908
000090 ef 7f 89 bd 6a e0 d3 3d e7 f5 94 bd bb 3d 5f 3d
       -0.067138545 0.10345538 -0.07273465 0.05450223
0000a0 70 23 6a 3c 21 a6 cd 3d 01 d0 06 3d 86 84 cb 3d
       0.0142906755 0.10041452 0.03291321 0.09937386
0000b0 05 80 ad 3d d0 19 e6 bc 45 e4 bc 3d a6 d2 b0 3d
       0.084716834 -0.02808848 0.092232265 0.08633928
0000c0 1a b3 31 bd 18 c3 e8 3b b1 7b d9 3c 63 0e af 3d
       -0.043383695 0.007103335 0.026548238 0.08547666
0000d0 0e bd b5 3d a8 bb 5d 3d f5 5b 53 bc 48 b9 65 3d
       0.0887395 0.05413404 -0.012900342 0.0560849
0000e0 3b 7d 0a 3c 1c 76 77 3d f8 89 8d 3d 86 e1 2b bd
       0.008452709 0.060415372 0.06911081 -0.041963123
0000f0 66 d9 c2 3c d8 dc 66 3d 33 e4 51 bc ee a1 b9 bd
       0.023785304 0.056362957 -0.012810755 -0.09064089
000100 d6 38 a8 3d 5c 7c 49 3c 3c 91 1f bd 62 25 6d bb
       0.082139656 0.012297716 -0.038956866 -0.0036185612
000110 ca 32 83 3d 98 af 21 3c 4d ea 59 3d 33 36 57 bd
       0.064061716 0.009868525 0.053201962 -0.052541923
000120 70 a5 c4 3d ad ce 49 3d 14 4d 0e bd a5 30 ec 3c
       0.09601867 0.049269367 -0.034741476 0.02883179
000130 4e 41 4d 3d 48 ac 75 3b 81 91 6f bd fe 30 92 bd
       0.050111108 0.003748672 -0.058488373 -0.07138251
000140 15 60 53 bd 01 b9 87 3c 0d bb 0d 3c e2 7d 66 3d
       -0.051605303 0.016567709 0.008650553 0.056272395
000150 0a d6 2e bd 42 77 c8 3c a2 9d fc bc d8 d0 aa bd
       -0.042684592 0.024470929 -0.030836884 -0.08340615
000160 c0 e1 b8 3c 85 4f 3b 3d 92 70 ef 3d dd 64 35 3b
       0.022568583 0.045730133 0.11691393 0.0027678527
000170 22 a7 5a 3d df 3f 1f bd 00 0d 11 3d 96 9e 16 bd
       0.053382047 -0.03887927 0.03541279 -0.036772333
000180 47 6e e5 bd 5c 1f a3 3d 64 b7 d4 bc 25 1c fa 3c
       -0.11202674 0.07964966 -0.025966354 0.030530998
000190 d3 f5 8a 3d 26 e6 6d bd 2b 75 71 bd c5 5e 03 3c
       0.067851685 -0.058080815 -0.05894963 0.0080182
0001a0 c2 fd 0a bd 4f 37 57 bd 67 c9 1e bd c9 3d ab bd
       -0.03393341 -0.05254298 -0.03876629 -0.08361394
0001b0 fb 84 d9 ba 9d f6 0d 3c a0 7c af bd 97 5f 20 bd
       -0.0016595417 0.008664754 -0.08568692 -0.03915366
0001c0 ec cf 38 3d 8f 3e c5 bd 80 57 23 bd 70 68 d8 3c
       0.045120165 -0.09631073 -0.03987837 0.026416987
0001d0 a8 c0 70 bd d0 e3 0f bd 60 8c f5 ba cd 97 66 bc
       -0.05877748 -0.03512937 -0.0018733852 -0.014074278
0001e0 be 06 7a 3d 2e 12 8b 3b 38 76 b1 3d ce 32 b8 bc
       0.061041586 0.0042441105 0.086651266 -0.022485163
0001f0 4c e1 57 3c ab cf f7 3d 01 3a ab bc 69 61 7d 3d
       0.013176274 0.121001564 -0.020901682 0.061860476
000200 db 34 d6 3d 53 e1 d1 bc 7b 41 25 3b 35 82 c6 3d
       0.104593 -0.025620138 0.0025216031 0.09692804
000210 30 d2 b3 3d e0 c6 43 bc 1f 44 13 3e d6 30 14 3e
       0.087803245 -0.011949271 0.14381455 0.14471754
000220 78 ae 7a 3e 28 6b 7f 3d 5b 4c cc 3c 14 f2 dd 3c
       0.24480617 0.06235805 0.024938753 0.02709297
000230 08 69 07 bd 39 d0 c2 3d c4 93 f5 bc 32 ee 76 bd
       -0.03305915 0.095123716 -0.029977687 -0.060285755
000240 3a 56 f0 bc 29 4c 00 3d 56 8d e9 3d 02 5d 47 bd
       -0.029337991 0.031322632 0.11403911 -0.048672684
000250 c9 c2 b4 bb e8 d0 18 3b 0b a3 fb bc 4a 45 51 3d
       -0.0055163843 0.0023317877 -0.030717393 0.05109147
000260 6c 17 d8 3d fe ae c9 3d 3f f4 8d bc 61 f3 05 3e
       0.10551342 0.0984783 -0.01732838 0.13081123
000270 9e 38 af 3d 98 90 08 3e ec 83 25 3d 01 df ae 3c
       0.08555721 0.13336408 0.040409014 0.02134657
000280 c7 4e a2 bc cd 70 c4 3c bf 8f 03 3c a7 5b 65 bd
       -0.019812955 0.023979569 0.008029877 -0.05599561
000290 8f 53 56 3d da 48 21 bd c0 18 69 3d 14 2b 8b 3d
       0.05232578 -0.039376117 0.05690837 0.06795326
0002a0 ad d5 44 bd e5 8e 12 3d 2b 08 47 bb 58 73 d3 bc
       -0.04805534 0.035780806 -0.0030369859 -0.025811836
0002b0 29 70 21 bd 6e f0 a6 3d 45 4a d5 3d 1e 3d 49 3d
       -0.039413605 0.08151327 0.104145564 0.04913055
0002c0 df 33 49 bd 44 fc d1 bb ed 93 fd 3d dc d2 1a bc
       -0.049121734 -0.0064082462 0.1238173 -0.009449687
0002d0 e6 ea a0 3d c1 b1 d1 3d cf a6 dc 3b cc 16 b1 3d
       0.07857303 0.10238982 0.0067337523 0.08646926
0002e0 cf 9f 8a 3b 23 28 39 bd ba 1a 23 3e e3 77 be 3d
       0.0042304765 -0.045204293 0.15928164 0.0930021
0002f0 55 1c 9e 3d 17 be 0c 3e 15 93 d6 3d a0 ab b7 bd
       0.07720248 0.13744389 0.104772724 -0.08968282
000300 75 ea 0e 3e 61 00 30 3c a6 ed 76 3c 26 70 89 bd
       0.13956626 0.010742278 0.015071308 -0.06710844
000310 44 52 d4 3b 15 0b 9b 3d 2b 4f 11 3e 79 82 10 bd
       0.0064795334 0.07570473 0.14190356 -0.03528068
000320 5e 38 66 3d dd dc 58 bd 32 2d 36 bd d9 8d e6 3d
       0.0562061 -0.052945007 -0.044476695 0.11257524
000330 61 be 7f ba 26 ad ed 3d 70 b1 b9 3d d6 5e 3d 3d
       -0.00097558467 0.11605291 0.09067047 0.04623302
000340 1f 44 52 3d 97 25 d1 3d 11 3d c5 3c 6d 6e 5f 3e
       0.051334497 0.10212248 0.02407697 0.21819468
000350 dc 52 67 3d ae 50 2d 3d ee ff f8 3c 27 69 b9 3c
       0.056475505 0.04231327 0.030395474 0.022633148
000360 4d 20 0d 3c 3e f5 11 3d 18 63 a5 3c c8 c1 20 3e
       0.008613658 0.03563427 0.020188853 0.15698922
000370 e4 90 f4 3b 4f ec 4b 3c f2 be 4d 3d cf 3e 60 bb
       0.0074635614 0.012446477 0.050230928 -0.0034217124
000380 fb b8 86 bd 93 3d 3f bc 7c 78 c2 3d 3b 89 c9 3d
       -0.06578251 -0.011672395 0.09495637 0.09840628
000390 e0 c1 27 bd be ff 47 3d bf 07 36 3d 9b 73 83 3e
       -0.040956378 0.04882788 0.04444098 0.25674137
0003a0 b4 02 f0 3d aa cf 2a bb c4 dc 32 3e a0 18 23 3d
       0.117192656 -0.0026063719 0.17467028 0.039818406
0003b0 16 a1 7b 3c df 08 9f bc d0 3b d7 bd 85 36 f0 bc
       0.01535823 -0.01941341 -0.10509455 -0.029322872
0003c0 70 b8 88 bc 1e eb 2e 3d 5e 04 8f 3c 96 fd 74 3d
       -0.01668951 0.042704694 0.017458137 0.05981215
0003d0 f5 a0 38 bd 28 1f a2 3c 4d fe 31 3d 7a 27 48 bc
       -0.045075376 0.019790247 0.04345541 -0.012216443
0003e0 af 1a ba bc c9 77 04 3e f8 88 55 3d 8e d3 12 3e
       -0.022717802 0.1293632 0.052132577 0.14338514
0003f0 40 d1 f4 3d 0f 5d 24 3e 94 36 92 3d 6c cb 02 3c
       0.11953974 0.16051124 0.07139316 0.00798307
